src/letter_recognition/model/lenet5_weight.pth (torch, 255898 bytes, 10 tensors)

conv1.weight f4 [6, 1, 5, 5]
00000000: c1a6 10be 6f19 85bd 2f4a 383d 38a1 823d
00000010: 70e6 b73d 585a debd 1118 7bbd 2b65 893d
00000020: 54ef 0abd ae7e 6c3d 979c e4bd 26ae 41be
00000030: 34d0 3dbe a139 7a3d f07a d9bd c607 113d
00000040: 286b 47bd ee96 0fbe 1bf0 62be b700 293d
00000050: 0486 703d 8bce c43d 2824 c73d 1350 61bd
00000060: 8db5 66bc 9fd3 39bc 9bd0 7bbd f260 823c
00000070: be72 203e b204 aabd dbca 2a3d 6f59 cb3d
00000080: a730 903d 7699 aabd c4e5 fbba d18f e53b
00000090: 80ef ebbb 72de 7ebc 68b7 eabd a6d9 0ebe
000000a0: 3266 c03b b62a d0bd 990d e7bd 27f2 57be
000000b0: cec5 173d fa2a b8bd e53d 4bbc c203 e4bd
000000c0: 846a 023d 0bfd 033b 6dff fc3d 4bc8 283c
000000d0: de0d 90bd 8488 fabd 685d d9bd bc5a b4bc
000000e0: ece6 c23d a096 dd3c 29e2 1abe 9a59 adbe
000000f0: 3bbc b4bd 657f 013d e137 eabc 9076 dbbe
00000100: 0669 f6be a51c 09be c1de bbbd ff57 823c
00000110: abe6 f7be ece5 8ebd a3e7 9dbd bf2e 90be
00000120: ddb8 eebe 314b 01bf 6de5 50be 052c 193c
00000130: 5bbe 06bd dbdc e9bc e06b 5cbe 51d4 b73d
00000140: 82b3 f0bd 7a18 acbd 21b4 49be b020 38be
00000150: 2ec1 0f3d 239e 52bc 10fd c8bd 955c 03bd
00000160: 4a31 9cbe c25c a5bd 043d f43d df65 e03d
00000170: d95d 63bc 12ff a1bd e64a d9bd de56 b13d
00000180: fdfa 5fbd aecb 15bd fb2c 8abe f4a3 e7bc
00000190: 1bdc 0d3c ffdd 573d 4461 27bd b9df 56bd
000001a0: 6915 66bd ceb3 08bb 7e10 41be 3713 b5bc
000001b0: 30fa aaba 7dc3 813c d0ab 22bd 4a9d 693d
000001c0: bab2 97bd 628d 52bd 08a1 abbc db87 82bd
000001d0: e7c4 123c fdc9 bb3d b5dd 983d 0eda c63d
000001e0: b0f9 a73d c5dd 473d b40c 09bd df52 5e3d
000001f0: a95d 71bd da60 a6bc dc65 d33b 6cd7 083d
00000200: 1090 603d f69f 7dbd 6bd3 f43c 309f a13c
00000210: 2639 923b 6ffe e5bd 008d 2fbd 25cf 553c
00000220: 18bd a53d 6c6a a8bd 4acf b2bd 997f 2bbd
00000230: 65fb b7bc 250f 7c3c 232a 5b3d c2a7 27bc
00000240: 97e0 fb3b 2982 5c3d ec60 fa3c 27e0 d3ba
00000250: 987f 5a3c 24d2 23bc
-0.14126112 -0.06498992 0.044992622 0.06378406 0.08979499 -0.108570755 -0.06130225 0.067087494
-0.033919647 0.057738 -0.1116268 -0.18914089 -0.18536454 0.061090115 -0.106191516 0.035407804
-0.048686177 -0.14022419 -0.22161905 0.041260447 0.058721557 0.096097074 0.09723693 -0.055008005
-0.014081371 -0.011341958 -0.06147824 0.015915368 0.1566877 -0.08301677 0.041697364 0.099291675
0.0704053 -0.083300516 -0.0019218256 0.0070056696 -0.0072001815 -0.015555965 -0.11460763 -0.13950214
0.0058715576 -0.101643965 -0.112818904 -0.21088468 0.037053876 -0.08992572 -0.0124048935 -0.11133529
0.031839862 0.002013984 0.12353406 0.01030166 -0.07033895 -0.122330695 -0.10613519 -0.022015922
0.09516701 0.027049363 -0.15125336 -0.33857423 -0.088249646 0.031615634 -0.028591098 -0.42863894
-0.48127002 -0.13389833 -0.09173346 0.0159111 -0.48418173 -0.06977448 -0.07710197 -0.28160664
-0.46625414 -0.5050536 -0.20400019 0.009348874 -0.03289638 -0.028547695 -0.21525526 0.08976043
-0.117529884 -0.08403106 -0.1969762 -0.1798122 0.03509634 -0.012855086 -0.09813893 -0.032070715
-0.30506355 -0.08074333 0.119257 0.1095693 -0.0138773555 -0.07909979 -0.10609989 0.08659147
-0.05468272 -0.036571197 -0.26987442 -0.028276421 0.008658434 0.052701946 -0.040864244 -0.052459452
-0.056172762 -0.0020859125 -0.18853948 -0.022103889 -0.0013044532 0.015840286 -0.039714634 0.05703477
-0.07407136 -0.051404364 -0.02095081 -0.063735686 0.008958078 0.091693856 0.07464162 0.097095594
0.08201921 0.04879548 -0.03345938 0.05427825 -0.058927212 -0.020309854 0.0064513516 0.033408567
0.05482489 -0.06192013 0.029885968 0.019729227 0.004462379 -0.1123017 -0.042859077 0.013049875
0.080927074 -0.08223423 -0.087309435 -0.041869733 -0.022458741 0.01538447 0.05350698 -0.010232868
0.0076866853 0.053835068 0.030563794 -0.0016164825 0.013336085 -0.009998832

conv1.bias f4 [6]
00000000: e624 0e3e b428 e33e c6cf c53f 5851 193f
00000010: 1aae 2fbf 3d60 55bf
0.13881263 0.44366992 1.5454032 0.59889746 -0.6862503 -0.8334997

conv2.weight f4 [16, 6, 5, 5]
00000000: 12c3 3b3d 49b1 50bd 405d 653d f3bc beba
00000010: 8e14 4ebe fb54 a23e 006f 2c3e bb4c e33d
00000020: bbd5 09bd f4df 893e 3e61 4e3e da59 59bb
00000030: 9d2f 00bd 094e 8bbd 614f 6d3d 98e6 afbd
00000040: 6f86 10bd c6fa 99bd 0771 3f3d ace2 b93d
00000050: f649 d6bd 9a38 ba3c bf41 e13d 0f20 dfbd
00000060: 2c22 0dbe 4990 4bbd 4687 a03c 227f 473d
00000070: 8556 803d 82ff 543d b3d4 93bc 6474 273d
00000080: 700e 883e 4cbb 133e 3e8c 013e 45b4 adbc
00000090: 0934 eebd 76ef d8bd 2f20 77be d8f8 c7bb
000000a0: 2cd5 c13d c008 963d 89d7 783d 1b06 0ebe
000000b0: 05e1 c6bd 2010 c7bd b8a2 e93c c931 8bbc
000000c0: 48b6 163d b906 b73d d9fd d73c 6d50 283e
000000d0: 742e 643e a7a0 463e 59a0 c8bd ddfd 2abe
000000e0: 77aa f83c 4997 c83d 2542 bc3d e4d7 50bd
000000f0: f777 15be 5aaf a0be 5e03 48be a56d c1bd
00000100: afd5 f83d bf3e 87be 8db8 40bb 6aac b8ba
00000110: 846d 38be 9ba6 90bd c8c1 fb3d 3555 2f3e
00000120: 5975 803d a1a5 98bd a534 3fbd b913 c53c
00000130: f810 4a3e 1092 583e 01d6 71be 0355 34be
00000140: 5ce5 a6bd ac25 11be bf01 0fbe 83e2 a1be
00000150: 24b2 2a3e ac92 0dbe c5ab a53a 2c84 e13d
00000160: ca1c 05bd c644 213e 927a 10bd 625f b4bd
00000170: b766 b0bd e3de 743d 4583 2f3d 8c20 133c
00000180: 5162 9d3d d678 273e 426a 1c3c 1636 4c3d
00000190: 75df 18be 02ee 2ebe d312 c33c 113e 1ebe
000001a0: d133 3abe 707d 13be 2c4f 59be 2056 49be
000001b0: f826 48be 17d1 8cbd 1046 103e 30da ea3d
000001c0: 3cc1 003e 6c58 85bc ad00 543c c414 283d
000001d0: 8a4c 943d a9dd 163e 5445 853d 2c97 c83b
000001e0: 9b28 693d f011 2e3d 4bc8 6abd 0913 273c
000001f0: 1e6c a4bc fc33 17bd 831d 443c 5620 cd3c
00000200: 88fd 143d 6dab 1abe ef43 3fbe a1b2 9abe
00000210: 79eb 57be 4c7e 3bbe f334 18bd 502f 72bd
00000220: 553a c9bd 1568 18be d3f3 55be 1050 42be
00000230: dece 69bc 29ca b2bc ff49 803d 79ee 943d
00000240: c5f0 18bd 2885 00bb 5caf 953b 41e3 63bb
00000250: ef68 c83d f660 a2bc 6068 0cbe 4c4d 95b8
00000260: b949 0ebe 66ac 8fbd fe42 cd3d 019f 19bd
00000270: f332 71be 67fd 9ebe f0c3 8cbe 940d 4a3d
00000280: 3759 8c3d 7125 6bbe dd6d 64be 4736 37be
00000290: fdd8 a9bd c32e 7fbd e34b f7bd 5c67 68be
000002a0: a7ae 7bbe 2615 cdbd d42d 09be fe2e a43b
000002b0: f3ac c6bd 402b 29be 98c7 07bd 086d 2e3e
000002c0: f067 ea3d 3681 ee3d c4a7 943d 21a2 823d
000002d0: f059 853d e83c 243d c965 d73d cdce 103c
000002e0: 0cd3 433d ba52 6dbc 77e8 7b3d 5821 6bbd
000002f0: 42e6 163e 9364 32be 46a7 e7bd 2200 97bd
00000300: 6b81 debd f0f9 0fbd 1442 81bd 52c9 70bd
00000310: 5d06 9bbe 9793 1a3d 8a3d 7fbd f635 65bd
00000320: ffc9 343d 3aff 343e 1a44 463d 74f0 273e
00000330: 3f46 873d 6911 773e 180c 983c 7e9e cd3d
00000340: 9d02 323e e0c1 513e 2921 453c d96d 313d
00000350: 3abb ef3d f62d 1d3e ed53 e3bd 7467 64bd
00000360: bec3 28be 38e3 29be d100 b23c c74a 66be
00000370: 1857 c8be d7db ddbd a8b5 4dbd f7f4 3bbe
00000380: e1b7 003c beff aabe 3ee7 cabd 6097 fabd
00000390: 49bf 9cbc 1be1 a4be a76e 98be 2a7a 313c
000003a0: 44bb dcbd 25f9 aabe c9b2 7ebd 273b 6bbe
000003b0: 872d 0e3e 8de5 16be 33d8 46be 4a0c f03c
000003c0: 0499 333d 0ed6 0cbe 8798 2bbe 4b8e cbbb
000003d0: a4c7 fb3d 9c6e a9bc a49d d13c b03b 233e
000003e0: 6d72 78bc 29e1 cd3d 6772 2ebd be64 b4bd
000003f0: 31fc 16bd b9a7 0c3e ba0a 8f3d 8327 8dbe
0.04584033 -0.050950322 0.055997133 -0.0014552161 -0.20125028 0.3170546 0.16839218 0.110986196
-0.033651095 0.26928675 0.20154282 -0.0033165128 -0.031295408 -0.068019934 0.05793703 -0.08588904
-0.035284456 -0.07518534 0.04673865 0.09076437 -0.10463326 0.022732068 0.10998868 -0.108947866
-0.13782567 -0.049698148 0.019595753 0.048705228 0.06266502 0.052001484 -0.018045759 0.040882483
0.26573515 0.14426917 0.12651154 -0.021204123 -0.11631019 -0.105925485 -0.24133371 -0.0061026625
0.094644874 0.07325888 0.060752425 -0.13869517 -0.09710888 -0.097198725 0.028519973 -0.016991513
0.03679493 0.08936829 0.026366161 0.1643693 0.22283345 0.19397222 -0.09796209 -0.16698404
0.030354721 0.0979448 0.091923036 -0.05098714 -0.14596544 -0.31383783 -0.19532534 -0.09444741
0.12150132 -0.2641506 -0.0029406876 -0.0014089469 -0.18010527 -0.070630275 0.1229282 0.17122348
0.06272382 -0.07453466 -0.046681065 0.024057256 0.19733036 0.21149468 -0.23616792 -0.17610554
-0.081492156 -0.14174527 -0.1396551 -0.31618127 0.16669518 -0.13825482 0.0012639692 0.11011538
-0.03249816 0.15748891 -0.035273142 -0.08807255 -0.08613341 0.059782874 0.042849798 0.008979928
0.07684768 0.16354689 0.009546818 0.049856268 -0.14928992 -0.1708298 0.023812687 -0.15453364
-0.18183829 -0.1440332 -0.21221608 -0.1966176 -0.19546115 -0.06875818 0.14089227 0.11467397
0.12573713 -0.016277514 0.012939614 0.04103543 0.07241161 0.14732994 0.06507364 0.0061215367
0.05692349 0.042497575 -0.05731992 0.010197409 -0.020071086 -0.03691481 0.011969927 0.025039833
0.0363746 -0.15104456 -0.18678258 -0.30214408 -0.2108592 -0.18309897 -0.03715987 -0.059127152
-0.09825579 -0.14883454 -0.20893793 -0.18975854 -0.014270512 -0.021824913 0.06264114 0.072720475
-0.03733899 -0.0019610617 0.0045680236 -0.0034772905 0.097856395 -0.019821625 -0.13711691 -7.119271e-05
-0.1389531 -0.07015304 0.10022543 -0.037505154 -0.23554592 -0.31052706 -0.27493238 0.049329355
0.06852954 -0.22963502 -0.22307535 -0.17891799 -0.0829334 -0.062300455 -0.12075021 -0.22695678
-0.24578343 -0.10013799 -0.13396388 0.0050104847 -0.09700956 -0.16520405 -0.03314933 0.1703378
0.11445606 0.11645739 0.07258561 0.0637858 0.06511295 0.040097147 0.10517461 0.008838368
0.04780869 -0.014485056 0.061500993 -0.057404846 0.14736274 -0.17421179 -0.11311202 -0.07373072
-0.10864528 -0.03515047 -0.063114315 -0.058785744 -0.30278292 0.03773841 -0.062314548 -0.055959664
0.04413795 0.17675486 0.04840479 0.1640032 0.06605195 0.24127735 0.018560454 0.100399956
0.1738381 0.20484114 0.012031832 0.04331765 0.117056325 0.15349564 -0.11099992 -0.055762723
-0.1648092 -0.16590583 0.021728905 -0.22489463 -0.39128947 -0.10832947 -0.05022207 -0.18355165
0.00785634 -0.3339824 -0.09907387 -0.12235904 -0.01913418 -0.32202992 -0.2977192 0.010832349
-0.107779056 -0.33393207 -0.06218222 -0.22971784 0.13884555 -0.14736004 -0.19418411 0.029302735
0.0438471 -0.1375353 -0.16757403 -0.006212031 0.12293938 -0.020682625 0.025587864 0.15940738
-0.015164 0.100527115 -0.04258957 -0.088082775 -0.036861602 0.13735856 0.06984468 -0.27569208

conv2.bias f4 [16]
00000000: 39a3 cabe b9bc 0a3e 9507 803e 10a3 b2be
00000010: a46d 3ebe 6234 b8be d4b3 abbe 78d7 f8be
00000020: 2103 84be 0761 5dbf 0bfc debe 15f6 303e
00000030: d771 eabd 6b6f f6be 17bb 92be 2da6 c7bd
-0.39577654 0.13548554 0.25005785 -0.34890032 -0.18596512 -0.35977465 -0.33535635 -0.4860189
-0.25783637 -0.86476177 -0.4355167 0.17281373 -0.114474945 -0.4813188 -0.28658363 -0.097484924

fc1.weight f4 [120, 400]
00000000: 600e 0e3c 1802 bd3c b3f4 973d c560 893d
00000010: 6d59 aebd bc99 41be 4fdb 0abd 7518 d63d
00000020: 0b19 e7ba f4de b2bd a92d 85be 1402 043e
00000030: 4a51 39bd 8c48 0abe 3a2a 113e 8586 25bd
00000040: b869 293d 87bb 203e 0e98 8e3d 2722 263e
00000050: bffc 7abc 48cc fbbd 7108 363e 7861 ac3e
00000060: accb 833d a8ab 963b 2a7a 613d 0672 e3bc
00000070: b65e 833d 1896 903e 3dbc b33d 2547 c63d
00000080: f2e1 793d 5d54 36bd 5ee5 43bd fcf6 c93d
00000090: 6220 1a3e 1385 f4bc 30dd 8cbd 83a0 0c3e
000000a0: 0237 ee3d 004b e5bc 245f a3bd 9d7a aa3d
000000b0: a159 623d 5771 783d 67fe d03c 9c44 90be
000000c0: e05c 0abe 22e9 38be 1890 bf3d e11b 91bd
000000d0: 05fb 173e 2c58 93bd 2fa6 11be 53dd 473d
000000e0: 406c af3d 2f85 a9bd e06b 14bc 226e 06be
000000f0: 76ab 3d3a a31c 973d a660 fdbd ed7a 74be
00000100: d1a0 dcbe fcda 653d afa3 273e 138d 5b3e
00000110: 56ab 393d 77a6 04bf 5fbb ca3d 516c 493e
00000120: 76ce 233e 0772 713e e462 0e3e 207f 03be
00000130: 931c 023e 724b eb3c 3604 96bd 2d55 3c3c
00000140: 7ef2 fbbd 6f85 5abd 7af4 a3bd d6c9 56be
00000150: ce8a e6bc 2223 bbbc 7ef9 75bd 98e6 d9bd
00000160: 9ee9 8a3c 66e9 d2bd e4a1 4dbd e43d 9dbc
00000170: 594c a43d 691b 433d 8027 a93c d6fd afbc
00000180: 0a7f c7bc 4b74 1e3e efe9 163e 9c7d fc3d
00000190: c26f 2fbe 0043 4fbe 18f6 f13c 85e2 8e3b
000001a0: 6846 213e 5c08 e8bd 8f37 ea3d fe50 733e
000001b0: cba8 b9bd 3708 c23d e25a c53d 54dd e53d
000001c0: 060f 443d 111d a1b8 15c5 1c3d 2925 a63b
000001d0: c364 4e3e 079f e43d 87f8 473d cada 4e3c
000001e0: 7aff 003e 5acd a53d c326 1b3e bf8b 853d
000001f0: a9e7 023d f072 673e 624d 0b3e 18b5 18be
00000200: 153c b5bd 3ee8 003d 60cc d33c 33c7 e9bc
00000210: 75e3 f4bd 5110 3ebe d763 b8be 4d3a 6a3d
00000220: 8653 cc3d fb4d ea3d 2ce3 f8bd 0b5d c0be
00000230: 4505 cebd b94c b6bd bc88 13be 704a a63c
00000240: 1025 22be c4ba 1e3c 20af c8bc f4e6 f6bc
00000250: b12c b7bc a2d8 abbc c728 9f3d 8ce5 aabd
00000260: dda3 04be f7ce 35be e264 29ba 57bb b63b
00000270: 035a 083d 36a1 e4bd b4fc 19be 2bd9 543e
00000280: 55f1 90bb 8972 ffbd 142c 7bbd 4fc1 c93c
00000290: 5d32 403d e155 003d d236 84be b0ce 11be
000002a0: 6bd0 54be 4972 5e3c 610c 52be 3410 da3c
000002b0: 1d00 30be 30f1 01be 6312 73bd 43c1 e6bd
000002c0: 03c1 b13c 5312 b7bc 2368 b1bd 61aa 03be
000002d0: d2da d83d 4dff fdbd bdf4 093d b12e 8dbd
000002e0: 0065 48be d8fd b93d cf5e 4abd e5b1 0f3d
000002f0: 38e1 a2be b756 8bbe aa39 b33c a173 2c3e
00000300: b894 ed3d b7e9 77be 3a7f 293e 9fd6 3dbc
00000310: 1ffa 583e a0f4 883e 9188 ec3c d8a2 673e
00000320: a40e 21be e635 cfbd 5449 84bd e89e 4a3d
00000330: 55ec b53d da23 34bd 8f03 373b b9c0 083c
00000340: 1641 05be e161 9cbc cde7 c93d 14ee a93c
00000350: b10f 7c3b 597a f33d 0761 d1bc 8c22 8f3d
00000360: 50aa 37bc 47d4 a63d 9485 313e d03c 2fbe
00000370: 02de d8bd 4a3d cebc d2be 57be 0876 70bd
00000380: 67c5 703d 35f2 133b c99e 2ebc 9f35 4dbd
00000390: 74aa a73c a918 153b 334f debd 435d d3ba
000003a0: 6fb9 473d 1804 1d3d a9f2 ef3d f6c9 b63b
000003b0: 969c 173e 3ad1 d9bd ae55 62be 7ea5 a3be
000003c0: 75ac bdbc 3b33 793d ec51 8ebd 27e0 c8be
000003d0: 8b8e 7cbe 1be3 393e 7db9 58bc 4ab5 093e
000003e0: cfcd bebd 10d3 4bbe 97fb 8abc 617e 11bc
000003f0: c361 3b3e 6065 ec3d 6ec4 02bd 2c41 acbd
0.008670419 0.023072287 0.074197195 0.067079104 -0.0851315 -0.18906301 -0.033900555 0.104538836
-0.0017631365 -0.08733931 -0.26011398 0.12891418 -0.04524354 -0.13504237 0.14176264 -0.04041149
0.041360587 0.15696536 0.06962596 0.16223966 -0.015319048 -0.12294823 0.17776658 0.33668113
0.06435332 0.0045980997 0.055048145 -0.027764332 0.06414549 0.28239512 0.08776138 0.096815385
0.061006494 -0.04451405 -0.047826163 0.09861562 0.15051416 -0.029848611 -0.06878126 0.13733105
0.11631586 -0.027989864 -0.07977131 0.08324168 0.055261258 0.060654964 0.025511933 -0.28177345
-0.13511992 -0.18057683 0.093536556 -0.070853956 0.1484185 -0.07194552 -0.1422355 0.048795056
0.08565569 -0.08277356 -0.0090589225 -0.1312795 0.00072353275 0.07378509 -0.1237195 -0.23875017
-0.43091443 0.056117043 0.16371034 0.21440534 0.045329414 -0.51816505 0.098990194 0.19670226
0.15996727 0.23578654 0.13904911 -0.12841463 0.12706213 0.028722499 -0.07325022 0.011494917
-0.12302111 -0.05334991 -0.080056146 -0.20975432 -0.02814236 -0.022843901 -0.060052387 -0.106396854
0.0169571 -0.102984235 -0.05020322 -0.01919455 0.08022375 0.047633562 0.020648718 -0.021483343
-0.02435257 0.1547405 0.14737676 0.123286456 -0.17132476 -0.20240402 0.029536292 0.0043604993
0.15749514 -0.113297194 0.11436378 0.23761365 -0.09065398 0.09474223 0.09636475 0.112238556
0.04786589 -7.682492e-05 0.03827389 0.005070348 0.20155625 0.111631446 0.048821 0.012625406
0.12597457 0.08095808 0.15151505 0.06520795 0.03195921 0.22602439 0.13603738 -0.14912832
-0.0884935 0.031471483 0.02585429 -0.028537368 -0.119574465 -0.18560912 -0.36013672 0.057184506
0.09976868 0.11440655 -0.121527046 -0.37570986 -0.10059599 -0.089013524 -0.14407629 0.020299166
-0.1583445 0.009688083 -0.024497569 -0.030139424 -0.022360178 -0.020977322 0.077714495 -0.08344564
-0.12953134 -0.17754732 -0.0006461871 0.005576532 0.033288967 -0.11163561 -0.15037805 0.20785968
-0.0044233003 -0.12473018 -0.061321333 0.02462831 0.04692303 0.0313319 -0.25823075 -0.14239001
-0.2078263 0.013577052 -0.20512535 0.026619054 -0.17187543 -0.12689662 -0.059343707 -0.112673305
0.02169848 -0.022347605 -0.08662441 -0.12857963 0.10588612 -0.124022104 0.033680666 -0.06893671
-0.19569778 0.0908162 -0.049406823 0.035081763 -0.31812453 -0.27214596 0.021878082 0.16840984
0.116006315 -0.24210249 0.1655244 -0.011586814 0.21189164 0.26749134 0.028873714 0.22620714
-0.15728241 -0.10117702 -0.06459299 0.04946795 0.088829674 -0.043979503 0.0027925705 0.00834673
-0.1301311 -0.019089641 0.098586656 0.020743407 0.0038461501 0.1188857 -0.025558962 0.06989011
-0.011210039 0.081459574 0.17336112 -0.17113042 -0.1058922 -0.02517571 -0.21068886 -0.058706313
0.058782008 0.0022574787 -0.0106579745 -0.050099965 0.02046702 0.0022750294 -0.1085495 -0.0016125817
0.048760828 0.038333982 0.117162056 0.005578275 0.14805827 -0.1063561 -0.22102997 -0.31962198
-0.023153523 0.060839873 -0.06949219 -0.39233515 -0.24663751 0.1815304 -0.013227818 0.13448063
-0.093165986 -0.19904733 -0.01696567 -0.008880229 0.18299012 0.11542773 -0.03192561 -0.08410868

fc1.bias f4 [120]
00000000: ed0b d6bd 8666 66bd d8e4 9b3c 0f1c 53bc
00000010: bf44 09be ccf1 90bd ec2c 93bd 1653 0cbe
00000020: 8c3e a03c 3e94 05bd fe5e 10be 4c7c ccbc
00000030: 9817 1ebe 25c2 32be 8793 14be 1d84 6f3d
00000040: f377 09be 26c0 503d e0e8 f3bd f9a7 f5bd
00000050: 76dc b5bd dbe5 353d bd18 33bc 665e bbbc
00000060: 73a3 c9bd 5365 5abd b11f bbbd 1b37 b7bc
00000070: 26b9 ecbd 6cac 51bc 6ea4 27be 4c8e eb3d
00000080: b02b f43c 4de3 853d 2ac9 41be 2e16 1dbd
00000090: 14bb 53bd 76c7 13bd 9bab eb3d 747e 003e
000000a0: eabf 993d 86b9 fbbd 03f1 8e3b 917a 333e
000000b0: cc01 aabd 3f72 3cbd dc3a e8bd c591 28be
000000c0: 7f99 383d 99a1 f7bd 3501 c8bd d538 903d
000000d0: 980c 053d 95de 36bd c3bd ff3d b304 0b3e
000000e0: 40a8 65bd c983 30be 508d a23c 233d a83d
000000f0: b9b6 9cbd 778d e2bc ba17 12be 3c30 b9bd
00000100: d8d6 dabd fb27 0bbe 62a2 5abd ab2e 8abb
00000110: 6d20 773d 139a bc3e 1c0a 21bd 0137 d8bc
00000120: 89e9 d93d 9d71 44bd cb82 a8bd 474c 2dbc
00000130: 9144 04be 2ff2 023d 0a25 0ebe 7f8c c33d
00000140: d9c4 18be 3b6d 85bd 4f56 c63d 9ade 3cbd
00000150: d4c7 3dbd addf 593d 54eb e5bb 6af9 333d
00000160: da5b ddbd 6149 0ebe 5081 16be 415c fbbc
00000170: 7e35 143e 4615 fcbc 7b9a 563d 95e0 0a3e
00000180: ebf8 6fbe 6f36 b2bd 5cb0 29bd bbed 39bd
00000190: 9db9 a3bc e106 98bd e7c9 613c ee0d 9ebd
000001a0: 9d20 e73d bbd6 b53c 66b2 febd 65a6 2cbe
000001b0: 946a 11be 8054 6fbe ed9c fdbd 78fd cf3d
000001c0: 5447 2c3c b845 6fbd a912 1bbd 9180 553d
000001d0: e15b 413c 0544 4fbe e622 863d dd58 0ebe
-0.104514934 -0.056250118 0.01903002 -0.012885108 -0.13405131 -0.07077369 -0.071863025 -0.1370357
0.019561075 -0.032612078 -0.14098737 -0.024961613 -0.15438688 -0.17456873 -0.14509402 0.058475602
-0.13424663 0.050964497 -0.11909652 -0.11994929 -0.0887994 0.04440866 -0.010931191 -0.022872161
-0.098456286 -0.053319287 -0.09136904 -0.022365144 -0.11558752 -0.012797456 -0.16371319 0.1150175
0.029805988 0.06537495 -0.18924394 -0.03835123 -0.051692083 -0.036078893 0.115073405 0.12548238
0.07507308 -0.12291245 0.004362227 0.17527224 -0.08301124 -0.04600739 -0.113393515 -0.16461857
0.04506826 -0.12091369 -0.09765855 0.0704209 0.032482713 -0.044645865 0.12487366 0.13576011
-0.05606866 -0.17237772 0.019842774 0.08214786 -0.07652039 -0.027655346 -0.14266863 -0.09042403
-0.106855094 -0.1358947 -0.053377517 -0.004216989 0.060333658 0.368363 -0.03931628 -0.026393415
0.106402464 -0.047959913 -0.08228072 -0.010577268 -0.12916781 0.031969246 -0.13881317 0.09548282
-0.14918841 -0.06514975 0.09684431 -0.046110727 -0.04633315 0.05319183 -0.0070165787 0.04393903
-0.10808535 -0.1389518 -0.14697766 -0.030683639 0.1447353 -0.030771863 0.052393418 0.13562234
-0.23434798 -0.08701789 -0.041427955 -0.045392733 -0.019985968 -0.07423187 0.013781047 -0.077175006
0.11285517 0.022197118 -0.124363706 -0.1686035 -0.14200813 -0.23372078 -0.12383447 0.10155767
0.010515053 -0.0584161 -0.037859593 0.052124564 0.011801691 -0.20240791 0.06549625 -0.13901086

fc2.weight f4 [84, 120]
00000000: a4a2 e4bd 845e c3bb 2356 0cbe 6055 c63c
00000010: 7dd9 813b 3e2c d23d 9ce2 303d b1e8 21be
00000020: 5d0c 11be 0e89 96bb 3c78 12be c8bd d23b
00000030: fa38 8a3b 891d f4bd 7a18 e5bd b9ba b13b
00000040: f82f 913d ab86 96bd a909 9cbd f2a4 f4bd
00000050: 78be fe3c 5458 15be ae33 28be c411 483d
00000060: 878f 32be d27b 683d 2266 e4bd 21e7 d23d
00000070: f7fa 1ebe bcc8 cd3d 023c 403d dc2e 22be
00000080: 7718 543d 17c6 783d 53e3 303d 063a bc3d
00000090: 1908 82be 0583 823e 35b7 47be ea2b a5bd
000000a0: b919 f1bd 8d57 c6bd 28e1 343d 8096 f7be
000000b0: 4b54 9fbc 8b14 9fbd 28f4 2ebe 749c 983c
000000c0: 47f9 473d 9868 98bd 226c 4a3d 36ab 003e
000000d0: 499c 2cbe c7dc cd3c 43f1 85bd 530c 813d
000000e0: 30cb 9b3d de8f 973d 76ba 95bd e5c5 2bbe
000000f0: 36a9 70bd 2506 6f3c c11c 483d ca40 2f3d
00000100: dd4c 45bd 0141 3e3e 5c9b 3c3d 944f f2ba
00000110: 2e21 84be fbd2 c93d 142e 253d f936 633d
00000120: 3504 4f3d aad9 353e c218 b93b 2230 0cbd
00000130: 6345 39bd 55e4 a13d d2ec d6bd 0ac9 70bd
00000140: 1dfb e0bc b366 56bd 1d7f dd3c b804 bcbd
00000150: d002 d23b bccc d73d 447f 9e3c cc79 9fbd
00000160: 0841 6e3e de0e 3d3e cc00 81bd a6d0 3b3d
00000170: ca33 6e3d bdaf 88bd 7b9e 19be 5959 13be
00000180: 79ce 1cbe 89af 88be b9bc 11be bf86 dc3d
00000190: 99d5 ac3d 4c80 a63d 71d6 033d 200a 45be
000001a0: a7fd 0f3e 9c9d 3fbe 5d39 11be 39f0 0e3b
000001b0: 35af 2fbe 494c 7fbe 71e3 fabd 7169 3abe
000001c0: 45e1 ba3d 3f2b 18bd 9705 0fbe 8d53 11be
000001d0: b900 943d c66e 833e dc8c b83c 9153 bb3d
000001e0: c301 91bd dadf 2c3d 0f5d 06be bc45 6dbe
000001f0: e146 4c3e c83e 3d3d 744c 8b3d 3ae6 913d
00000200: 782a 813d 5501 873c f98f 453e e7d8 40bc
00000210: 4c69 2a3d bc5e 63bd a31f a5bc 8e2c a73d
00000220: 1c93 313e 7b22 043e 9199 813d 04db 143d
00000230: c394 7b3b 4f61 153d 18be 19be 6893 b5bc
00000240: df97 8abe 2757 a53d 2de1 a73d 6df6 f23d
00000250: 8360 7bbd 1e57 8ebc 4ae8 7b3c a837 2c3d
00000260: f741 1dbd e454 adbd 8fb0 5bbd 5d0a 13bd
00000270: 0152 2cbd 77a3 0ebd 5d93 053e 970a abbd
00000280: 920d 7cbd 34b7 7a3b 0dbb 87ba 4f29 42be
00000290: 8586 d6bd 7834 71be c2d0 47be 9a8f 85be
000002a0: 0009 3dbc ca66 ff3d b2ba 4cbe 0cce abbe
000002b0: 065e b0bc 2d2b 9fbc 8b43 073e e485 9dbd
000002c0: 8c2e 8bbd cc3b e8bc cee6 3bbd 6fb7 9fbe
000002d0: e973 c4be 045a 9c3c 06b5 0f3d a3da c0bd
000002e0: 8302 32be c366 a0bd bcdc 72bd 0ffa e23d
000002f0: 2852 48bc be2e 1bbe 8110 9d3d 65c5 3e3d
00000300: 99a5 32be 27e3 5bbe 8fbd 973d 5143 9ebd
00000310: e0eb 103d 4c30 2e3e 3720 f4bd 1ecf 9db9
00000320: f5bb 083e 69a7 853d a6c1 cfbd 2eaa 67bd
00000330: fb60 e8bd 5d37 77be 279a c4bd 9dfc 7dbd
00000340: c5c4 78be c580 cebc 8545 55be 1233 07bd
00000350: 02aa 68bd 0b7f 9e39 b48a 90bd 4281 aebe
00000360: 0a6a 063e 8868 563d bbef d43d 8802 71be
00000370: ce6a a23d b22d 8c3d c916 43bc 7bd1 b6bd
00000380: 5290 d3bd 0b31 593e 7d67 13be 813d c0bd
00000390: 35ff 11be 6bd6 7fbe aa1e fc3d 5223 cd3c
000003a0: 5bf2 d4bd dc5e 803e 1225 ffbd ce82 6dbc
000003b0: 84a7 1b3d 906c 273d 3fef 61bc 53ed d7bb
000003c0: ae0d d4bc afbc 5abe f8f9 89bd ce96 b63d
000003d0: ffaa 0dbe b4d4 96bc 56fd 11be a939 243e
000003e0: 1b2c b43d 8e3c ed3a cd42 f73d 3f4f 693d
000003f0: da77 d33d 3120 ce3d 045f 58bd 1ff3 463d
-0.11163834 -0.005962195 -0.13704734 0.024210632 0.003962694 0.10262345 0.04318486 -0.15811421
-0.14164872 -0.004593975 -0.14303678 0.006431315 0.004218218 -0.11919696 -0.11186309 0.0054238704
0.070892274 -0.073499046 -0.0761903 -0.11945523 0.031096682 -0.14584476 -0.16425964 0.048845068
-0.17437564 0.05675871 -0.11152293 0.102979906 -0.15525423 0.10048053 0.046932228 -0.15838188
0.051781144 0.06073579 0.043185543 0.091907546 -0.25396803 0.25490585 -0.19503482 -0.080650166
-0.11772484 -0.09684668 0.04416004 -0.4835701 -0.019449374 -0.0776759 -0.17085326 0.01862929
0.048821714 -0.07441825 0.04941953 0.12565312 -0.16856493 0.025129689 -0.06540158 0.06301179
0.07607114 0.07400487 -0.07310955 -0.1677471 -0.058755122 0.014588867 0.048855547 0.042786397
-0.048169006 0.18579485 0.0460466 -0.0018486851 -0.25806564 0.098546945 0.040327147 0.055472348
0.05054112 0.17758814 0.0056487033 -0.03422559 -0.045232188 0.07904879 -0.10494389 -0.058785476
-0.02746349 -0.052344035 0.027038151 -0.091805875 0.0064090267 0.10537097 0.019347794 -0.07786903
0.23266995 0.18462703 -0.0629898 0.04585328 0.05815486 -0.066741444 -0.15001862 -0.14389552
-0.15313138 -0.26696423 -0.14232148 0.10767888 0.08439178 0.081299394 0.03218693 -0.19242144
0.14061604 -0.18712467 -0.14182039 0.0021810664 -0.1715668 -0.24931444 -0.12250412 -0.18204285
0.09124998 -0.037150618 -0.13966976 -0.14192028 0.072267 0.2567045 0.022528104 0.091467984
-0.07080414 0.04220567 -0.13121437 -0.23171133 0.19948913 0.04620245 0.06801692 0.0712399
0.063069284 0.016480127 0.19293202 -0.011770464 0.041604325 -0.055510268 -0.020156687 0.08162795
0.17341274 0.12903778 0.063281186 0.036341682 0.003838823 0.036469754 -0.15013921 -0.022165015
-0.27068993 0.080732636 0.08197246 0.11863408 -0.061371338 -0.017375525 0.015375206 0.042045265
-0.038392987 -0.08463457 -0.053635176 -0.035898555 -0.042070393 -0.03482386 0.13044496 -0.08351629
-0.06153638 0.003825617 -0.0010355428 -0.1896107 -0.10474876 -0.23555171 -0.19513229 -0.26086122
-0.01153779 0.12470777 -0.19993094 -0.3355564 -0.021529209 -0.019429768 0.1320936 -0.07691553
-0.067959875 -0.028348826 -0.04587441 -0.31194636 -0.38369682 0.019085892 0.035084747 -0.09416702
-0.1738377 -0.078321 -0.05929254 0.11082851 -0.012226619 -0.1515455 0.076691635 0.04657497
-0.17445983 -0.2147337 0.07409202 -0.07727683 0.035381198 0.17010611 -0.11920207 -0.00030099688
0.1335295 0.065260716 -0.101443574 -0.05655878 -0.113466226 -0.24142213 -0.09599715 -0.06200849
-0.24293812 -0.025207886 -0.20827301 -0.03300769 -0.056802757 0.00030230763 -0.070577055 -0.3408299
0.13126388 0.052345783 0.103972875 -0.23536122 0.079305276 0.06844653 -0.011907288 -0.08926674
-0.10330261 0.21210115 -0.14394946 -0.09386731 -0.1425751 -0.24984138 0.12310536 0.025041256
-0.10397788 0.25072372 -0.124582425 -0.014496518 0.038001552 0.040875018 -0.013789951 -0.0065895705
-0.02588543 -0.2136104 -0.06737131 0.089154825 -0.13834761 -0.018411972 -0.14256796 0.1603762
0.08797475 0.0018099712 0.12073288 0.05696034 0.10325594 0.10064734 -0.05282499 0.048571702

fc2.bias f4 [84]
00000000: 1f68 c0bd 9163 99bd 1993 163e 643a 9a3d
00000010: f961 97bc 6665 adbb b97a 50bd e5b0 a8be
00000020: 8868 5bbb f267 1239 6242 793d c98e c13d
00000030: f0db 6dbe 2604 b6bd 5488 fabb 885e 0e3e
00000040: c9d4 513e f38c 583d cd04 29be 95d8 803d
00000050: 4538 803d d40b 103d 6fbf 883c b526 553d
00000060: f5ff 473e e9dc 03be 0cc2 c53c ba79 db3d
00000070: 1c5e 12be c049 44be 65be 0fbe fc9b 52be
00000080: e0b7 b1bd 486f e5bd 3704 423e 99de 733d
00000090: 0237 2abe e577 fabc e2f7 943d 0dde 343d
000000a0: 64ae 9dbd eba7 5e3b cf1f b03e 232d 8e3d
000000b0: 815d 43be 9861 e53b a38a 1abe 9033 773c
000000c0: 1449 39be a969 c4bd 3799 153e fd7c a13d
000000d0: 96b0 1fbd ded9 343e e8ed 10be fbcf 1cbc
000000e0: 946d 0d3e 6265 183d fe97 a7bc 2606 22be
000000f0: bdae e9bc cabf dbbd 67f0 38bc c40f d53b
00000100: 8c68 0abd 3708 f4bd 43a3 72be e9b3 19be
00000110: f409 f0bd aafe 0abd 7c73 d13d 5035 9abe
00000120: 7f61 cdbd 631e 85bd ceb8 333e 5d95 18be
00000130: 362c debd 1aa4 9cbd 41a1 0abe 79a0 803d
00000140: 13a1 9b3e 0ea8 93bd 1161 bd3d d5e0 c3bd
-0.093948595 -0.07489694 0.14704551 0.075306684 -0.018479334 -0.0052916287 -0.050898287 -0.3294746
-0.0033479054 0.00013962368 0.060854323 0.09451062 -0.23228431 -0.0888751 -0.007645646 0.13903248
0.20491327 0.052868795 -0.16505738 0.0629131 0.062607326 0.03516753 0.016692845 0.052038867
0.19531234 -0.1287724 0.02414038 0.10716577 -0.14293712 -0.19168758 -0.14037473 -0.20567316
-0.086776495 -0.11202866 0.1894692 0.059538458 -0.16622546 -0.030574748 0.072738424 0.044157077
-0.07699278 0.0033974599 0.34399268 0.06942203 -0.19078638 0.0070001595 -0.15091948 0.015087977
-0.18094283 -0.095904656 0.14609228 0.07885168 -0.038986765 0.17661235 -0.14153254 -0.009571071
0.13811332 0.03720606 -0.020458218 -0.15822658 -0.028525705 -0.1072994 -0.011287785 0.0065021235
-0.03379111 -0.11915629 -0.23695092 -0.15010037 -0.117206484 -0.033934273 0.10227105 -0.301188
-0.100283615 -0.064999364 0.17550966 -0.14900728 -0.10848276 -0.076484874 -0.13538076 0.06280608
0.30396327 -0.07209788 0.092470296 -0.09564368

fc3.weight f4 [26, 84]
00000000: af5e 563d 819b ac3d 78e5 1f3e 652a dabd
00000010: 0da9 1fbe 2422 b73c bcac 48bd 8b42 8d3d
00000020: 8f77 19be cb97 e93d 2282 8cbd 2c5d 23bd
00000030: 8ebe 18be 5574 46be 6171 a1bd 9b34 df3d
00000040: c2ba 4dbd 9649 fa3d 0a5f 8ebd 2379 c63c
00000050: cce6 9f3d b225 29be 6a04 e8bd a82e 1bbe
00000060: 4a21 093e 784d 2d3d 4201 9bbd 4f4e b23c
00000070: 5cca 27bd 0e15 e43d b393 8fbe dfc2 93be
00000080: d652 11be 0cf7 69be 62a8 01bc b7fa a8be
00000090: 6918 47bd 8866 45be 621f d1bc 8547 12be
000000a0: f597 003d 21eb 633d f142 e43c 05a0 8abe
000000b0: 7848 9b3d 0f48 acbd 73f2 a6bd 970b 3ebd
000000c0: 9d4a 68be 5b06 5fbe 9a55 0cbe 1073 d7bd
000000d0: fcb9 923d 92a9 56be 0152 d53d e912 1bbe
000000e0: f837 c5bd bf77 37bc d46e 1dbe 0ace 25be
000000f0: b657 cbbd 395d a7ba 9cc4 29be 7ffe 1c3d
00000100: 60fc b7be 3aa4 a63c 3ab9 89be 1f55 acbe
00000110: 06e7 b3bd 993d 9e3c 5c16 c43d 1b3d a0be
00000120: 6b85 8b3d fd33 72bb 89a3 01be dd83 73bd
00000130: 4ef6 8cbd 5950 81be 35f1 0abe 062f 8ebd
00000140: 147a 64be 6ba2 72bd 6895 cebd f1ff 053d
00000150: b000 4b3c e2e6 a9be f9a0 15bd f37a 48be
00000160: 0c82 91be b71b 4e3e 4675 b33d 44fc 22be
00000170: e1ee 4bbe fb2e fc3c 9d4e 04bf c920 13bd
00000180: 1645 acbc 900b 15be 9905 29be 95d0 153d
00000190: d015 2a3d cf2e a7bd b682 12be e1e2 1cbe
000001a0: 591f 123e e6e1 38bf e5d5 56be a50f 3fbe
000001b0: 2f89 fcbd a133 ef3b 5147 6e3d 0e1f cb3d
000001c0: ab1c 82bd b859 7ebd 5cb2 b5bd ef31 56be
000001d0: 799f 8abd aff1 6fbd 379b e9bd a67e 163d
000001e0: 85dd fb3c 7989 17bd f08f 813c 9d6f d2bd
000001f0: 7fb4 bdbd 99a5 4ebe 5836 59be 06f4 1ebe
00000200: 31c0 47be e1dd 75bd d50b 87bd d56d acbd
00000210: 6cb0 da3d 004a 9fbc b54d 83be 7aea a6bd
00000220: 7f3f 84be e5eb b23d 8dc4 c2ba eee1 1fbe
00000230: 6fa1 4bbd 2371 a6bd ef79 a2bc c84d 7bbd
00000240: fd2d 68bc 45bf d43d a625 50bd 398e 60be
00000250: 52de 08be cc2b dfbc e488 27bd 95d9 0dbe
00000260: 6069 93bd 295e 8abe bc7f 4dbe 33ae f0be
00000270: 7df8 e9bd c6f4 1abe 3b2f 0abc abbc ebbd
00000280: c06a c23d 76ce e4be 8dde 86be 4cfd 1cbd
00000290: d09a b13d a63a d9bd d657 c1bd ab72 84bd
000002a0: c995 05be 2d54 77bd 1fd6 9cbd ee39 6c3d
000002b0: 46f3 66bd e672 93bc ac0f c63c 2134 803d
000002c0: 69b6 88bf 614b 02be a64c 233b 50eb f3bd
000002d0: 209d 7abd 631a bcbd 1811 8dbd c51d c63c
000002e0: fa01 f9bd e593 44be 5c8d 4b3d 8170 f2bd
000002f0: 9929 00be f298 8d3d 62b8 62bc 0785 6bbe
00000300: 8e77 8cbd 2654 9b3d d64a f7bd bbcf 89bb
00000310: ae4d 193c b0b9 28be 9f50 f5be 1259 49be
00000320: aeab bfbe 01fe 343e 6472 903d 6fdc 3cbe
00000330: bab8 d0bd 29a5 04be e29f 01be 9762 23be
00000340: 6bc8 143e b9fb c7bd eb95 d4bd d352 e7bd
00000350: bd1a 5d3d 8fcf 27bc 809a 6dbe 134a cd3d
00000360: a6a8 73bc 5bc6 cebd dbb6 3ebe 62bc 063e
00000370: d3e9 e5be 8a25 873c 7604 933c 6b8a 93bc
00000380: 95ce 0b3c f925 6dbc 16c2 b3bb aa79 60be
00000390: dac5 05be ab88 62bc 0629 1ebe 9436 58be
000003a0: 7698 7ebc a35d c5bd e4cf 08be b30c 89be
000003b0: db56 1dbe 3415 a7bd b1a9 e83c c841 71be
000003c0: 592d 06bc c090 483c 06d9 a5bc 0cba c9bd
000003d0: fa42 e43d c2bd 91bd c4dd f8be 8838 81bc
000003e0: 46de ebbd 6b96 d2bd c418 89bd e293 d73d
000003f0: 0218 373e 4b43 9dbe 7c7d 8fba 42ca 933d
0.05233639 0.084280975 0.15614879 -0.10652617 -0.15591832 0.022355147 -0.048992857 0.06897458
-0.14987014 0.11405905 -0.06860758 -0.039883777 -0.14916441 -0.19380315 -0.078829534 0.108987056
-0.050226934 0.12221067 -0.06951721 0.024227684 0.07807693 -0.16518286 -0.11328967 -0.15154517
0.13391605 0.042310208 -0.07568599 0.021765856 -0.04096447 0.11136828 -0.28042373 -0.28859612
-0.14191756 -0.22848147 -0.007913681 -0.3300378 -0.048607264 -0.19277394 -0.02552766 -0.14285095
0.031394918 0.05564416 0.027863951 -0.2707521 0.07582182 -0.084121816 -0.08151712 -0.04639777
-0.22684713 -0.21779768 -0.1370453 -0.10519993 0.0716438 -0.20963123 0.10416032 -0.15143932
-0.09629816 -0.011197983 -0.15374309 -0.16191879 -0.09928839 -0.0012768871 -0.16578907 0.038328644
-0.35934734 0.020341981 -0.2689913 -0.33658692 -0.087842986 0.019316481 0.09574577 -0.3129662
0.06812557 -0.0036957257 -0.1266004 -0.059451926 -0.068829164 -0.25256613 -0.13568576 -0.06942563
-0.22312194 -0.059236925 -0.10087091 0.032714788 0.012390301 -0.33183962 -0.03653047 -0.19578151
-0.2841953 0.2012776 0.087626025 -0.15916544 -0.19915344 0.03078412 -0.51682454 -0.03591994
-0.021029036 -0.14555192 -0.16506042 0.036575872 0.04152471 -0.08163225 -0.14307675 -0.15320922
0.1426977 -0.72219694 -0.20980032 -0.18658312 -0.12330853 0.007299856 0.05817348 0.099180326
-0.06353124 -0.06209728 -0.0887191 -0.20917486 -0.06768698 -0.058580097 -0.11406558 0.036741875
0.030745277 -0.03699634 0.015815705 -0.10275195 -0.092629425 -0.20180358 -0.21212137 -0.15522775
-0.19506909 -0.060026053 -0.06594054 -0.08419386 0.10678181 -0.019444466 -0.25645223 -0.081501916
-0.25829694 0.087363996 -0.0014859602 -0.15613529 -0.049714502 -0.08127048 -0.019833533 -0.061353475
-0.014171121 0.10388044 -0.050817154 -0.21929254 -0.13366058 -0.027242564 -0.040902033 -0.13852532
-0.07197833 -0.27024963 -0.20068258 -0.47007903 -0.114243485 -0.15132436 -0.008434112 -0.11510595
0.09493017 -0.44688767 -0.26341668 -0.0383275 0.08672106 -0.106068894 -0.094405815 -0.06467184
-0.1304542 -0.06038301 -0.07658028 0.057672434 -0.056384347 -0.017999124 0.024177395 0.06259943
-1.0680667 -0.12724067 0.0024917512 -0.11910117 -0.061185002 -0.0918472 -0.06888026 0.024184117
-0.1215858 -0.19197042 0.049695358 -0.11837865 -0.12515868 0.06913938 -0.013837906 -0.22999965
-0.06858741 0.075844094 -0.12074821 -0.0042056716 0.009356899 -0.16477084 -0.47913072 -0.19662884
-0.3743567 0.1767502 0.07053068 -0.18443464 -0.10191484 -0.12953629 -0.12658647 -0.15955578
0.14529578 -0.09764809 -0.10380157 -0.11295094 0.053980578 -0.010242357 -0.23203468 0.10023894
-0.014871752 -0.10096427 -0.18624441 0.131578 -0.44904956 0.016497392 0.017946463 -0.018010339
0.00853314 -0.014474385 -0.0054857833 -0.21921411 -0.13063756 -0.0138265295 -0.15445337 -0.2111457
-0.015539279 -0.096370004 -0.13360554 -0.267675 -0.15365164 -0.08158341 0.028401228 -0.2356025
-0.008189523 0.012241542 -0.020245086 -0.09849939 0.11145587 -0.071162716 -0.48606694 -0.015774027
-0.11517005 -0.10282596 -0.06694177 0.10526253 0.17880252 -0.30715403 -0.0010947431 0.07216312

fc3.bias f4 [26]
00000000: 6660 923d f833 ef3c 0285 8dbd c8b1 89bd
00000010: 546c 633e 4674 63be 802b 4cbe 8184 e33e
00000020: f20a 673e a919 65bd dadd 68be ff9a ff3c
00000030: e4f5 24be 6fff 20bd ade2 a5bd e07c 5abe
00000040: 6332 90bd 213b 16be 2fee 8e3c 99e0 a03d
00000050: e07a ab3e a113 033e f6df 7fbe 4f84 fdbc
00000060: d4d1 4e3d 69ee 6cbe
0.07147293 0.029199585 -0.06910135 -0.06723362 0.22209293 -0.22212324 -0.19938469 0.4443703
0.22562769 -0.055932675 -0.2274088 0.031201838 -0.16109425 -0.0393061 -0.080998756 -0.21336699
-0.070408605 -0.14670993 0.01744756 0.078553386 0.33492184 0.12800457 -0.24987778 -0.030946879
0.050493076 -0.23137821
