src/letter_recognition/model/lenet5_weight.pth (torch, 255884 bytes, 10 tensors)

conv1.weight f4 [6, 1, 5, 5]
000000 07 bf 03 bc db 7a c9 3b 75 a5 86 3c 73 5f cc 3c
       -0.00804115 0.0061486787 0.016436318 0.024947857
000010 1e fa 7f 3c 52 b5 5e 3d 8a a9 01 3e 87 94 3d 3e
       0.015623597 0.05437214 0.1266233 0.1851369
000020 85 56 2a 3e 22 95 e4 3d a8 4e 14 3e 31 95 80 3e
       0.16634567 0.11161257 0.1448313 0.25113824
000030 5d 04 9f 3e 77 06 81 3e 65 c9 1f 3e 41 fa 00 3e
       0.31058016 0.25200245 0.1560417 0.12595464
000040 17 6e 48 3e 0c 75 61 3e 7b 28 2e 3e 9c 75 d1 3d
       0.19573246 0.22017306 0.1700763 0.1022751
000050 4c 4b c6 3c a5 6e 2a 3d 26 d4 29 3d e5 ab 11 3d
       0.024205826 0.041609425 0.041462086 0.035564322
000060 8a 59 90 3c 70 ef 07 3d f3 59 13 3d a5 d7 14 3d
       0.01762082 0.03318733 0.035974454 0.036338467
000070 a7 eb 0f 3d d6 17 1b 3d 4e ec 54 3d fa 71 60 3d
       0.035136845 0.03786453 0.05198317 0.054796197
000080 34 58 62 3d 51 89 66 3d f9 e0 7a 3d e6 7f 60 bb
       0.0552599 0.0562833 0.061249707 -0.003425592
000090 2d da d6 ba 38 94 ef ba 97 22 cd ba 92 a0 81 3c
       -0.0016391926 -0.0018278426 -0.0015650567 0.015823636
0000a0 89 f4 59 bd 31 b6 46 bd 81 7f 55 bd 23 56 4a bd
       -0.053211723 -0.048513595 -0.05212355 -0.049398553
0000b0 4d f4 cb bc 3c 98 24 bd 2b 1e 1f bd 23 c8 53 bd
       -0.024896765 -0.040184245 -0.03884713 -0.051704537
0000c0 a1 3f 5a bd 44 cb 00 bd ea 27 75 3d 42 fb d1 3d
       -0.053283338 -0.03144385 0.05985252 0.10253002
0000d0 2a 51 90 3c b7 cf 9e bd b2 9f d0 bd 59 17 e6 3d
       0.017616827 -0.07754462 -0.101867095 0.11234922
0000e0 6c 3f 14 3e 2d 5c 8c bb 14 72 fe bd a1 9d fd bd
       0.14477319 -0.004283449 -0.124241024 -0.12383581
0000f0 1f 92 17 3e f2 7a 1f 3e b3 26 ea bc 8b d3 0d be
       0.14801835 0.15574244 -0.028582906 -0.13850228
000100 c4 df ed bd 48 e1 0c 3e ad 67 0b 3e 43 0f d8 bc
       -0.116149455 0.13757813 0.13613768 -0.026374465
000110 68 15 f3 bd 2c 16 b2 bd eb c6 da 3d 14 f8 e9 3d
       -0.11869317 -0.08695635 0.10682472 0.1142427
000120 83 c7 f1 3b d2 87 58 bd b8 08 c5 bc 00 f7 ef ba
       0.00737852 -0.052863903 -0.024052009 -0.0018307865
000130 cf b3 91 bd bd 42 d5 bd 22 d7 cb bd 23 e0 d7 bd
       -0.07114374 -0.1041312 -0.09953143 -0.105407976
000140 41 93 b9 3c a8 be 6c bd 89 3e cc bd 72 00 cc bd
       0.022653224 -0.05779901 -0.09972865 -0.099610224
000150 f8 8c d6 bd b3 dc cf 3d af 31 41 3d 22 71 1a 3c
       -0.104761064 0.10149517 0.047166523 0.009426387
000160 db 5f 96 bb 83 04 91 bc be a6 0c 3e 60 26 04 3e
       -0.0045890636 -0.017702347 0.13735482 0.12905264
000170 32 f3 f0 3d 6a 69 cc 3d 8c eb 90 3d 20 52 1d 3d
       0.11765136 0.09981044 0.07076177 0.0384084
000180 da 4f 58 3d 34 bb 9f 3d 86 96 b0 3d 4d 2e 90 3d
       0.052810527 0.07799378 0.0862246 0.07040081
000190 91 d0 50 b6 61 c3 a7 b5 77 b3 a0 b3 e3 18 7e 31
       -3.1115817e-06 -1.2499332e-06 -7.483225e-08 3.6976011e-09
0001a0 90 52 65 b2 1d bf a8 b6 6c 52 9b b6 df 91 d2 b4
       -1.3348327e-08 -5.0290387e-06 -4.628955e-06 -3.9221683e-07
0001b0 39 4e be b2 7e 19 68 b2 86 f2 ba b6 f4 34 a5 b6
       -2.2154483e-08 -1.3509974e-08 -5.5714654e-06 -4.9235477e-06
0001c0 13 04 41 b5 72 52 0a b3 fb d8 90 b2 6b 2d 91 b6
       -7.190403e-07 -3.2205612e-08 -1.6862478e-08 -4.326624e-06
0001d0 4c d8 b2 b6 b2 33 41 b5 1f 3a 0b b3 b0 36 eb b1
       -5.3299937e-06 -7.197333e-07 -3.241632e-08 -6.8456174e-09
0001e0 39 aa e6 b5 13 60 0d b6 f5 41 64 b4 fc 71 d3 b2
       -1.7185877e-06 -2.106656e-06 -2.125815e-07 -2.4615467e-08
0001f0 3d dc 93 b2 18 25 14 bd 60 95 96 3c a4 d0 57 3d
       -1.7213205e-08 -0.036168188 0.018381774 0.05268921
000200 fd 3b 05 3c cc a0 2f bd be 40 8a bd a5 c2 d3 3c
       0.008131978 -0.042877957 -0.0675063 0.02584965
000210 c3 84 aa 3d 8e 00 de 3b 99 62 70 bd 7b eb 99 bd
       0.083261035 0.0067749685 -0.05868778 -0.075156175
000220 9a 3f 2a 3d dc b5 b6 3d 7a 8b 95 bb 05 e7 7c bd
       0.04156456 0.08921406 -0.004563746 -0.061743755
000230 b0 c7 71 bd bc ea 31 3d e4 50 8c 3d 54 fc 6c bc
       -0.059028327 0.04343675 0.06851366 -0.014464457
000240 e4 f0 40 bd 61 f5 1a bd 07 06 12 3d 0a 89 33 3d
       -0.04710473 -0.037831668 0.03565028 0.043831863
000250 47 5a 1d bc dd 22 e6 bc
       -0.009604043 -0.028092796

conv1.bias f4 [6]
000000 fc 98 e1 35 c6 42 0b b7 fc 9c bc 37 a8 0f 2d 37
       1.6808331e-06 -8.3005925e-06 2.2484448e-05 1.0315249e-05
000010 48 5c 54 38 e6 df cf b7
       5.0630682e-05 -2.4780584e-05

conv2.weight f4 [16, 6, 5, 5]
000000 28 a1 eb 3c a9 22 dd 3c 94 f1 ea 3c 51 3f bf 3c
       0.028763369 0.026994066 0.028679647 0.023345621
000010 1e 42 d4 3a 0c a1 7b bc 2d 97 fb bb 62 71 db bb
       0.0016194021 -0.015358221 -0.0076779337 -0.006696866
000020 7a d9 a1 bc 09 ce 17 bd 2a bd 60 bd d0 3a 47 bd
       -0.019757021 -0.037061725 -0.0548679 -0.048640072
000030 52 f1 47 bd 2e d9 44 bd 74 90 3d bd ca fb bc 3b
       -0.048814125 -0.04805868 -0.04628034 0.0057673203
000040 f2 70 f9 ba b5 61 ff bb a6 e7 b2 bc 35 af 19 bd
       -0.0019030853 -0.00779363 -0.021838974 -0.037520606
000050 e0 e8 3c 3d 43 68 c7 3c bb 92 8c 3c 79 8c 8b ba
       0.046120524 0.024341708 0.01715981 -0.0010646723
000060 94 61 d6 bc b9 36 19 3c e2 d5 db 3b f7 88 be 3b
       -0.026169576 0.009351426 0.0067088464 0.0058146673
000070 63 f4 a5 3b fa bd 64 3b 93 2e 47 3c 2b d6 48 3c
       0.0050645336 0.0034903274 0.0121571 0.012258093
000080 40 f1 45 3c 40 27 d1 3b 74 fe 7d b9 09 c0 46 ba
       0.012081444 0.006382853 -0.00024222751 -0.0007581716
000090 23 c1 4a 3b fb 71 a1 3b 25 f0 ce 3a ee d1 dc ba
       0.0030937872 0.0049269176 0.0015788121 -0.0016847232
0000a0 00 e4 d1 3a f5 a5 10 3a 38 8d 5a ba ac 66 a5 ba
       0.0016013384 0.00055178936 -0.0008337083 -0.00126191
0000b0 32 80 7a 3a a2 54 3e 3c 04 8f 41 3c 70 fb ea 3b
       0.0009555846 0.011616858 0.011813883 0.007171087
0000c0 3a aa 8f 3a b8 b5 b5 ba 86 a8 d1 bb 2b a4 df bb
       0.0010960766 -0.001386336 -0.0063982634 -0.0068249903
0000d0 76 cb 4c bb 55 f9 71 3b 30 96 a0 3b 43 a3 c1 bc
       -0.0031249202 0.0036922295 0.0049007162 -0.02363742
0000e0 92 e5 87 bc f1 d5 13 bc 49 9a c3 bb 41 98 b0 bb
       -0.01658896 -0.009023176 -0.00596932 -0.005389244
0000f0 62 4f cf bc dc 30 96 bc 7f a4 76 bc 9a 4b 9f bc
       -0.025306407 -0.018333845 -0.015053867 -0.01944523
000100 40 b9 5f bc 64 13 22 bc d9 de 0f bc e9 f2 90 bb
       -0.013655007 -0.009892318 -0.008781158 -0.0044234884
000110 1d bc bf bb 6c 12 c8 bb 29 73 e2 3b 24 b6 c1 bb
       -0.0058512823 -0.0061057117 0.006910701 -0.0059116054
000120 77 41 32 3b 45 77 c1 3b a5 91 49 ba b0 cb 0b 3c
       0.0027199665 0.0059041106 -0.0007689244 0.00853245
000130 f4 19 4c 3c ce d0 f6 3b b5 94 1e bb bb cd 31 bc
       0.01245736 0.0075322157 -0.0024197523 -0.010852273
000140 fe 99 2c bc 92 d9 e7 bb c0 3f 4e bc 82 10 7a bc
       -0.0105347615 -0.007075497 -0.012588441 -0.015262725
000150 84 70 55 bc c7 51 20 3c e9 fa 60 3c d9 32 d0 3b
       -0.013027314 0.009785122 0.013731697 0.0063537178
000160 29 7a c1 bb d5 d6 ee bb 46 8a da 3c 0b 0b bf 3c
       -0.005904455 -0.0072887936 0.026677262 0.023320695
000170 fb dd d1 3c 55 31 46 3c e3 47 56 b9 21 9c 5e 3c
       0.025618544 0.012096723 -0.0002043541 0.013587029
000180 eb 2e c1 3b 9b 3a eb 3b f1 68 84 3b 97 6f 9e ba
       0.0058954856 0.007178617 0.0040408303 -0.00120877
000190 b6 bf b9 b2 05 e5 96 b2 60 c2 66 b1 58 ec 46 33
       -2.1624015e-08 -1.7566444e-08 -3.3579894e-09 4.631542e-08
0001a0 f2 2b 35 33 88 00 cf b2 fc 90 85 31 c0 e5 58 33
       4.2182315e-08 -2.4098213e-08 3.8872923e-09 5.0500375e-08
0001b0 fe d0 3c 33 2a 85 8d b2 e9 22 21 b3 d3 f6 4b 32
       4.396224e-08 -1.6475116e-08 -3.7517484e-08 1.18722765e-08
0001c0 b7 82 31 33 d4 83 94 32 9e d4 cc 33 72 17 d7 b2
       4.132991e-08 1.7289416e-08 9.538165e-08 -2.5039956e-08
0001d0 80 c5 20 b2 39 03 24 31 98 46 a2 32 4e 8f 70 33
       -9.358132e-09 2.3866973e-09 1.8891384e-08 5.600969e-08
0001e0 a6 f3 e7 b2 75 69 a9 b2 92 ed fe b1 a7 26 8e 32
       -2.7002738e-08 -1.9722146e-08 -7.4193816e-09 1.6548553e-08
0001f0 4e 1a 27 33 eb 69 03 bb 88 61 14 bb 35 18 25 bb
       3.890664e-08 -0.0020052146 -0.002264114 -0.002519143
000200 a3 f4 09 3b 36 5f df 39 93 a9 f2 ba 9f 1a a4 bb
       0.0021050356 0.00042604812 -0.0018513672 -0.0050080563
000210 32 5d ec bb c0 60 a7 ba 0f 7f e5 ba af 78 ad ba
       -0.007213258 -0.0012769923 -0.001750918 -0.0013234819
000220 2b 3e ae bb 47 a7 1b bc cd df 2c bb 13 00 25 bb
       -0.0053174696 -0.009500331 -0.0026378513 -0.0025177046
000230 bb 33 5e bb a9 fc 91 bb 92 ee b9 bb 2c c8 8b b9
       -0.0033905345 -0.0044551683 -0.0056741918 -0.00026661286
000240 cc 05 8f ba 86 f7 a6 bb 92 61 3d bb 98 dc 49 39
       -0.0010911762 -0.005095425 -0.0028897268 0.00019251031
000250 ac a4 50 3a 70 c4 8e 39 c6 e6 df b1 26 4c a5 b3
       0.00079591083 0.00027230708 -6.51639e-09 -7.6972626e-08
000260 30 30 50 b4 c6 d7 47 b4 99 74 ea b2 24 5d 7f b3
       -1.938904e-07 -1.8611817e-07 -2.7294208e-08 -5.9456525e-08
000270 ac a2 c7 b4 5c 38 28 b5 43 69 e2 b4 42 b3 62 b3
       -3.7184998e-07 -6.266689e-07 -4.2172368e-07 -5.278276e-08
000280 7c ab 26 b4 8d ae 1a b5 5a 67 45 b5 a8 f8 df b4
       -1.552234e-07 -5.7623475e-07 -7.3538615e-07 -4.1717908e-07
000290 6c bd 22 b3 9b f6 27 b4 78 bd de b4 a8 11 ec b4
       -3.7890842e-08 -1.5642802e-07 -4.148858e-07 -4.3971272e-07
0002a0 b5 91 58 b4 7f ec 4e b2 6d 35 cc b2 70 75 3f b3
       -2.0169576e-07 -1.2044551e-08 -2.377302e-08 -4.457746e-08
0002b0 1b 6f 05 b3 51 53 0c b2 5c 31 49 af d5 7f 45 31
       -3.1067525e-08 -8.1680165e-09 -1.829838e-10 2.8739937e-09
0002c0 39 4d 0b 30 b1 e9 b2 2d a6 d3 a1 2a e6 08 ab 2b
       5.0677645e-10 2.0340037e-11 2.8746206e-13 1.2152751e-12
0002d0 22 f1 86 2d 53 0f 10 29 68 a2 02 29 5e 69 02 29
       1.534112e-11 3.1987715e-14 2.9006664e-14 2.895719e-14
0002e0 3a d4 8c 2a 73 8c 81 aa ab cb 0b 29 b5 ee 02 29
       2.5016258e-13 -2.301246e-13 3.1040854e-14 2.9072844e-14
0002f0 ed 23 07 29 7b b6 0a 29 62 af fc 28 e9 cc e3 28
       3.0007182e-14 3.0800432e-14 2.805368e-14 2.5290928e-14
000300 d7 0e d7 28 28 5d e2 28 3b 8b f6 28 3e 7f f1 28
       2.387623e-14 2.513144e-14 2.7371868e-14 2.6811557e-14
000310 2a 68 da 28 7c 26 d2 28 ce c9 e0 28 5d a5 76 29
       2.4248036e-14 2.3331373e-14 2.4956515e-14 5.4766403e-14
000320 af f6 03 31 35 0e a6 2f 37 23 29 2d 72 58 06 2a
       1.9203232e-09 3.020532e-10 9.614357e-12 1.1932276e-13
000330 2c 71 8f 29 cc 1b 41 2d 08 91 f3 28 27 9f de 28
       6.370108e-14 1.0976952e-11 2.7041317e-14 2.4715972e-14
000340 5d b4 d4 28 1d 13 d2 28 da 2c 18 aa 16 db e6 28
       2.3614948e-14 2.3322973e-14 -1.3515873e-13 2.5630143e-14
000350 95 21 dc 28 4c fe d0 28 9b 56 d0 28 2b 0e fa 28
       2.443947e-14 2.3202923e-14 2.3130198e-14 2.776172e-14
000360 cb 95 e3 28 ce 29 df 28 d8 0c d3 28 17 2d d3 28
       2.5267025e-14 2.4776103e-14 2.3431276e-14 2.344526e-14
000370 45 b2 fd 28 b1 69 03 29 93 86 c8 29 0e 7c ef 28
       2.8165955e-14 2.9179516e-14 8.905129e-14 2.658813e-14
000380 7e b8 ad 29 46 84 0e ad a9 91 ad 29 3e 54 a9 29
       7.7147476e-14 -8.101136e-12 7.7080113e-14 7.519721e-14
000390 9f 2e aa 29 3b f5 ac 29 14 7d a4 aa 2d 4a b2 29
       7.557604e-14 7.680875e-14 -2.9219043e-13 7.9176554e-14
0003a0 11 ba ad 29 50 db ae 29 5d 75 b1 29 f0 4e ba 29
       7.715021e-14 7.765197e-14 7.880738e-14 8.273753e-14
0003b0 da 3f b4 29 5d 14 b0 29 c7 22 b0 29 3f 7d 06 2a
       8.004682e-14 7.8195026e-14 7.822003e-14 1.1945044e-13
0003c0 ec 2a b9 29 b0 8d bb 29 63 68 bb 29 03 50 2a 2a
       8.223096e-14 8.329047e-14 8.3225764e-14 1.5126793e-13
0003d0 ab 7a 6c ae 0d fe 2c 2a 9a f1 39 2a bf 4b c0 2a
       -5.376914e-11 1.536481e-13 1.6515123e-13 3.415861e-13
0003e0 bb ab a8 ad 3b d8 6e 31 b4 3f df 2b c6 14 b8 aa
       -1.9175652e-11 3.475647e-09 1.5862784e-12 -3.269938e-13
0003f0 48 4a 8e ab 88 54 a2 2a a9 59 d9 2a 89 85 2e ab
       -1.0110324e-12 2.8835636e-13 3.8609158e-13 -6.2002535e-13

conv2.bias f4 [16]
000000 7a 9f 85 b6 30 25 56 b2 72 77 02 b7 18 ee 05 37
       -3.9822744e-06 -1.2464895e-08 -7.776414e-06 7.982853e-06
000010 d0 61 5b b8 58 a3 d7 b8 7c 9e f4 34 62 f3 91 b8
       -5.2304764e-05 -0.00010282424 4.5563854e-07 -6.9594724e-05
000020 c6 d2 42 38 28 39 f2 35 04 b6 e1 36 a8 2c 77 b1
       4.6449502e-05 1.804704e-06 6.726712e-06 -3.5968615e-09
000030 ae 30 d3 b8 80 70 11 b7 7d 9e 31 33 71 0d a1 37
       -0.00010070331 -8.668867e-06 4.1355168e-08 1.9198955e-05

fc1.weight f4 [120, 400]
000000 ef 5c 34 33 14 2c 44 b2 9c 2c d1 b3 0f b7 f2 b3
       4.199404e-08 -1.1418724e-08 -9.740435e-08 -1.1302301e-07
000010 d4 23 3a 33 28 b9 46 32 0e 2b 3a 31 1e f4 53 b2
       4.3339085e-08 1.15672165e-08 2.7091036e-09 -1.2337322e-08
000020 80 7e 87 33 fe 06 cf b3 59 51 75 33 b5 a7 a3 33
       6.3094376e-08 -9.6404605e-08 5.7117493e-08 7.620785e-08
000030 46 34 83 b3 28 0a 0f 33 64 b5 d9 31 0e dd e0 b2
       -6.109671e-08 3.330402e-08 6.336153e-09 -2.6177556e-08
000040 82 4d 2b b3 c5 01 95 32 91 4c 35 b2 e9 b4 c1 b2
       -3.9884533e-08 1.7346688e-08 -1.0552996e-08 -2.2550426e-08
000050 87 3e 7d 33 7e 25 77 33 55 99 82 32 26 11 06 34
       5.896302e-08 5.7543268e-08 1.520372e-08 1.2485961e-07
000060 7a e7 08 b4 99 33 aa 34 5e 1d 94 34 0d 73 2f 30
       -1.2750198e-07 3.170251e-07 2.7588516e-07 6.3828126e-10
000070 a6 ad 80 ac 94 c5 46 36 72 09 86 b4 5f db 72 28
       -3.6572577e-12 2.9619305e-06 -2.4966317e-07 1.3481267e-14
000080 4d c5 b6 38 69 69 20 b1 81 88 43 30 a2 b0 d8 33
       8.7151864e-05 -2.3342983e-09 7.113457e-10 1.0090413e-07
000090 99 70 00 2f 1c 8e 03 37 c6 d2 90 2e e1 74 21 b6
       1.1681535e-10 7.841296e-06 6.585803e-11 -2.4058902e-06
0000a0 c4 28 73 b5 06 40 f4 2f 09 aa a0 2d f7 4d 35 32
       -9.0583876e-07 4.4428833e-10 1.8265405e-11 1.0553314e-08
0000b0 fc 7f 16 2e 40 ea 79 b6 96 85 b1 b8 cf 09 85 36
       3.4219724e-11 -3.7240243e-06 -8.4649e-05 3.9648507e-06
0000c0 46 cf 06 39 be a6 b0 b4 fa e1 95 b2 cd 19 00 34
       0.00012856451 -3.2903876e-07 -1.7448645e-08 1.1930315e-07
0000d0 5d 95 92 b4 e0 21 52 b4 0d 86 cb 33 06 f5 fe 31
       -2.7303295e-07 -1.9570098e-07 9.477308e-08 7.420229e-09
0000e0 2a ff bd 33 ba c0 5a b3 a7 75 16 b2 0a 0b 01 b4
       8.8474124e-08 -5.0932364e-08 -8.7579e-09 -1.2018077e-07
0000f0 72 22 56 b3 08 92 a2 31 6b 64 bb 33 e3 81 96 33
       -4.9857086e-08 4.7314224e-09 8.726132e-08 7.0085456e-08
000100 9c d1 db 33 57 02 72 33 73 fa 47 b4 df 8f 62 b2
       1.023611e-07 5.6347144e-08 -1.8624432e-07 -1.3187644e-08
000110 16 d8 55 b4 0b 78 9e 34 2b 9b d4 32 80 5c 27 33
       -1.9915782e-07 2.9517136e-07 2.475061e-08 3.8966846e-08
000120 90 83 99 af 30 f8 e9 30 9a 97 65 b3 99 2b dd b2
       -2.792402e-10 1.702352e-09 -5.3456098e-08 -2.5747612e-08
000130 5c c8 bd 33 7a 60 76 34 8e 0d 62 34 07 23 a3 b3
       8.8374435e-08 2.2945633e-07 2.1052821e-07 -7.5966504e-08
000140 e4 71 af b3 8c 01 08 b7 12 2c 37 b6 1e e9 dc 33
       -8.169789e-08 -8.106592e-06 -2.7294777e-06 1.0286952e-07
000150 49 9c 71 34 48 9c 0a 34 fd c6 86 b3 ed 27 13 b3
       2.250173e-07 1.2909106e-07 -6.276057e-08 -3.4262417e-08
000160 c3 8e 0d 33 9d 5e 4d 34 fc 79 28 b4 14 17 43 34
       3.2958962e-08 1.9126533e-07 -1.5690597e-07 1.8169186e-07
000170 f0 44 80 b4 90 f4 13 b7 41 60 30 ba aa da 82 b3
       -2.3892017e-07 -8.818824e-06 -0.000672821 -6.0933715e-08
000180 54 f2 9f b9 81 c4 8d ba 52 b4 d1 ba e7 32 91 b9
       -0.00030507392 -0.0010816009 -0.0015999174 -0.0002769448
000190 5e df 8e b4 34 ed d2 b4 0b 42 9d 34 30 e7 8b b4
       -2.6612082e-07 -3.9288136e-07 2.9291581e-07 -2.605898e-07
0001a0 bb b8 94 32 ed 32 c8 b7 4f d8 1f b7 8f b8 3d b8
       1.7313473e-08 -2.3865572e-05 -9.527502e-06 -4.5232995e-05
0001b0 85 64 28 35 44 f8 93 33 86 36 64 b8 ee 35 d9 b8
       6.273115e-07 6.89038e-08 -5.4410215e-05 -0.000103574115
0001c0 94 c4 3b b9 07 0e 24 35 a9 f6 fa b3 e4 bc 84 b8
       -0.00017906941 6.1115173e-07 -1.16863994e-07 -6.329434e-05
0001d0 b5 76 7d b8 db 07 6b b7 b9 ac b1 34 90 54 95 34
       -6.0430455e-05 -1.40089205e-05 3.309449e-07 2.781494e-07
0001e0 1a ac 21 b6 17 26 01 35 6a 86 02 35 e6 9d 2d b4
       -2.4091046e-06 4.8111673e-07 4.862437e-07 -1.6169324e-07
0001f0 f9 3a 83 34 02 da 36 34 f8 6b 95 30 65 bb b2 b3
       2.444356e-07 1.7029382e-07 1.0871863e-09 -8.322858e-08
000200 2a 2a bd 33 d9 90 b9 32 fd 0f 49 ba 2c 5d ee 33
       8.808668e-08 2.1602704e-08 -0.0007669924 1.10996865e-07
000210 66 22 ca 33 23 b5 bf 33 ae 1f bf b2 61 ae 80 b8
       9.412615e-08 8.927079e-08 -2.2249733e-08 -6.135996e-05
000220 ee 85 08 b4 ae 2b e9 32 3c 70 14 33 ae fd ab b2
       -1.271471e-07 2.7144633e-08 3.4561012e-08 -2.002238e-08
000230 cf d2 98 b6 a1 83 5e b3 4e 57 71 b4 3d 67 70 33
       -4.5544944e-06 -5.180812e-08 -2.2476635e-07 5.597325e-08
000240 bc 75 33 b3 db 3b 46 bb bc 8a 0c ba 1b 73 f5 b9
       -4.1783764e-08 -0.003024808 -0.0005361249 -0.00046815802
000250 6d 59 8d b8 a9 4b 26 34 34 40 78 a6 b0 cf 36 a4
       -6.740061e-05 1.548748e-07 -8.6129296e-16 -3.9640877e-17
000260 db ec 16 23 fc ab 22 a3 b7 5b 3a a4 fa 23 53 26
       8.181672e-18 -8.818457e-18 -4.0410006e-17 7.325409e-16
000270 3e 99 e6 a3 fc 22 af 21 74 61 e6 23 d9 df 49 24
       -2.500155e-17 1.1867722e-18 2.4977923e-17 4.3774534e-17
000280 20 0d 7f a4 81 1a 0e a5 bb aa 02 00 86 3a 55 23
       -5.5305428e-17 -1.2325517e-16 2.44918e-40 1.1559146e-17
000290 38 2a 84 22 70 e2 0d a3 43 38 08 a5 d3 9d 00 22
       3.5823373e-18 -7.691575e-18 -1.1815182e-16 1.7430786e-18
0002a0 e2 c4 98 21 49 72 0e 25 7a e0 96 25 f6 11 39 a5
       1.0352035e-18 1.2355258e-16 2.6172963e-16 -1.6052278e-16
0002b0 10 fe e9 a1 da 8e b0 23 5e c8 3a a4 a7 ee 2e b8
       -1.5855944e-18 1.9142458e-17 -4.050204e-17 -4.1707095e-05
0002c0 23 c9 7f b8 89 5a bf b5 7d c2 ca 34 dd 62 77 b3
       -6.098406e-05 -1.4256958e-06 3.776694e-07 -5.7599085e-08
0002d0 b1 2a c7 b8 b0 7f 1a b9 7e ce 4c b7 4e fd ea b3
       -9.497011e-05 -0.00014734152 -1.2207425e-05 -1.094255e-07
0002e0 3f 35 33 b2 08 47 60 af 69 76 22 33 64 61 ee b3
       -1.0431278e-08 -2.0397917e-10 3.7826258e-08 -1.1100454e-07
0002f0 8b 4f e2 b3 83 61 a2 b2 ac e1 be b7 9c df 2e ba
       -1.0538414e-07 -1.8903625e-08 -2.2754852e-05 -0.00066708936
000300 2b 93 ba ba d0 c5 91 ba 62 be 64 ba 20 b0 47 b2
       -0.0014234533 -0.0011121575 -0.0008725879 -1.1623371e-08
000310 18 dc 30 b9 74 a1 fd b8 8f 49 e8 34 31 33 03 34
       -0.0001686666 -0.00012094053 4.3266888e-07 1.2218949e-07
000320 fa 17 96 b9 04 84 f2 b9 2a 08 86 b8 b0 21 31 b4
       -0.00028628093 -0.00046256196 -6.3911386e-05 -1.6496665e-07
000330 4a 19 80 33 27 07 42 b3 52 d3 ee b3 c6 66 7d 33
       5.9650645e-08 -4.517565e-08 -1.11211776e-07 5.8999625e-08
000340 00 f7 07 b4 83 de 0d b4 dc 92 ad b3 8e ff 3c b3
       -1.2662713e-07 -1.3212598e-07 -8.082654e-08 -4.4004587e-08
000350 6e 1d a7 33 96 88 9b b4 11 92 c7 b7 6c 63 b7 33
       7.781897e-08 -2.897038e-07 -2.3790666e-05 8.539686e-08
000360 8b 87 e5 b3 f8 7c 96 b4 ef 5a 9c b4 4a d3 83 b6
       -1.06882986e-07 -2.8030604e-07 -2.9123427e-07 -3.9287015e-06
000370 0c e6 db 30 ba 85 05 b3 dd ee 95 33 f2 3e 2e b3
       1.599973e-09 -3.10881e-08 6.981802e-08 -4.056978e-08
000380 18 7b 3d 33 3e fa 8c 31 6e 73 99 b2 0a 0c 33 ae
       4.4116945e-08 4.1029855e-09 -1.7864036e-08 -4.071058e-11
000390 14 3a e4 af c0 a9 a3 b2 aa d5 39 36 d6 c9 b5 b1
       -4.1514225e-10 -1.905289e-08 2.7691517e-06 -5.2907394e-09
0003a0 d4 c4 63 b5 dc 4a 47 b4 8a f3 2a 32 59 dd 37 2f
       -8.485051e-07 -1.8560553e-07 9.950677e-09 1.6722392e-10
0003b0 17 c4 b5 b8 42 2d ac b5 bd 74 71 ad 1a eb 93 36
       -8.667277e-05 -1.282817e-06 -1.3725185e-11 4.408311e-06
0003c0 e4 b8 3a b8 50 f5 a5 34 08 ac 35 34 94 88 1c 2e
       -4.451805e-05 3.0912133e-07 1.6919523e-07 3.55916e-11
0003d0 cd 37 35 32 8e 89 3d 37 58 bb 12 36 c8 92 c5 b1
       1.0548274e-08 1.1297305e-05 2.1864744e-06 -5.7501417e-09
0003e0 d0 aa 4d 2e cc 11 b8 36 ee c0 16 2a f6 9b cb 28
       4.6763315e-11 5.485699e-06 1.3389612e-13 2.2605165e-14
0003f0 32 c2 0e 27 f2 48 90 ac 4d 19 26 ac 20 c5 2f a8
       1.9811732e-15 -4.1008247e-12 -2.3604064e-12 -9.757196e-15

fc1.bias f4 [120]
000000 12 5d 53 b7 07 af 14 b8 86 d0 c8 b0 50 e7 73 28
       -1.259825e-05 -3.5448957e-05 -1.4611181e-09 1.3539368e-14
000010 90 0f e1 b8 ea 6b bb 35 a6 80 60 b8 a4 ce e7 b4
       -0.00010731735 1.3963993e-06 -5.3525575e-05 -4.3177454e-07
000020 ec 4d 2a 35 d0 0e 88 35 ec 0c e4 36 e4 aa c6 35
       6.3443326e-07 1.0137101e-06 6.796434e-06 1.4801885e-06
000030 b2 a2 15 b6 b2 2b c0 32 e8 2d 03 b5 9d 0d 1b b8
       -2.2297431e-06 2.2371612e-08 -4.8868105e-07 -3.6967558e-05
000040 48 0d b8 b5 19 33 9b b7 24 34 88 b8 be 2b d1 37
       -1.3712934e-06 -1.8501234e-05 -6.494697e-05 2.493511e-05
000050 25 f2 97 36 2c 12 35 33 ba 50 4d b5 2c fc 67 b6
       4.52834e-06 4.2158874e-08 -7.6485924e-07 -3.4568466e-06
000060 c2 3f 2a b8 69 6f a3 b8 a6 c3 b1 b8 16 e0 65 38
       -4.0590538e-05 -7.7931974e-05 -8.47646e-05 5.480655e-05
000070 c2 98 c2 b0 da b4 30 31 58 4e 7a 36 14 08 6f ae
       -1.4158774e-09 2.5714173e-09 3.7298505e-06 -5.4349483e-11
000080 fb 3f 9c b7 78 54 cf b8 e4 cc 89 37 d0 74 29 35
       -1.8626442e-05 -9.886263e-05 1.6427082e-05 6.312739e-07
000090 98 99 07 b6 fc c5 f9 37 88 ae e3 37 fc c7 8b 36
       -2.020597e-06 2.9775307e-05 2.7141781e-05 4.165804e-06
0000a0 f8 69 b7 b5 6a 18 48 b9 94 40 26 b4 3a b5 fb b6
       -1.3665403e-06 -0.00019082581 -1.5483448e-07 -7.5014805e-06
0000b0 2c 83 d9 37 48 4d 77 36 d0 1b a8 37 3c 8e 37 ad
       2.5929497e-05 3.6850852e-06 2.0040112e-05 -1.0433928e-11
0000c0 ea 44 3c b5 68 7f b3 b4 a7 97 16 b3 88 b9 aa 37
       -7.013574e-07 -3.3434048e-07 -3.5062524e-08 2.0351974e-05
0000d0 43 3c af 36 cd b7 0f 38 ab 0c 88 38 e4 13 47 b5
       5.222422e-06 3.4265035e-05 6.487345e-05 -7.416222e-07
0000e0 b0 fb 66 38 3b a2 a9 b8 f5 2d 3f 39 ee d6 9e 33
       5.5070675e-05 -8.088766e-05 0.000182323 7.396544e-08
0000f0 c6 a1 8c 36 c4 47 11 b4 ba 1e c6 b7 34 6d b6 b7
       4.191158e-06 -1.3530286e-07 -2.3617748e-05 -2.1746942e-05
000100 68 89 30 b4 e0 4c 96 b8 66 a7 37 38 0e 38 ea 2f
       -1.6441265e-07 -7.1668765e-05 4.3786502e-05 4.260418e-10
000110 68 43 59 b6 34 cc 8a 37 10 96 aa 37 02 e2 a6 b7
       -3.2374755e-06 1.6545971e-05 2.0335458e-05 -1.9893985e-05
000120 06 6c cf b8 c1 f4 87 b4 cc 5f e0 b6 06 e6 45 b6
       -9.89065e-05 -2.532379e-07 -6.6868724e-06 -2.9489179e-06
000130 ba bb 1d 38 6d 48 f0 b4 9c d7 08 36 34 38 29 b8
       3.760655e-05 -4.475618e-07 2.039108e-06 -4.0345083e-05
000140 44 d6 de 35 cc 29 17 b4 60 f7 d4 b5 98 ce c4 b5
       1.6602648e-06 -1.4078176e-07 -1.5867226e-06 -1.4663265e-06
000150 c5 cb 20 b6 f0 eb 9f b3 e5 fd 37 b5 f0 56 44 37
       -2.3960467e-06 -7.446931e-08 -6.854228e-07 1.1702752e-05
000160 6e f9 15 b8 1a 13 83 b7 b3 f3 4b 37 33 37 d4 b8
       -3.5756668e-05 -1.5625312e-05 1.21564835e-05 -0.000101192294
000170 fc 0e 1f b6 8e 0e 9a ae e8 69 ff 33 99 ac 94 b3
       -2.3701568e-06 -7.0056946e-11 1.1893627e-07 -6.9231824e-08
000180 c3 97 88 34 2e f1 12 37 42 70 90 37 16 39 99 35
       2.5442395e-07 8.758432e-06 1.7218412e-05 1.1416003e-06
000190 56 f2 97 b7 74 d7 bb b3 b0 81 27 b8 5c d0 2a 35
       -1.811345e-05 -8.747057e-08 -3.9936684e-05 6.363314e-07
0001a0 c3 fd bb b8 a0 9b 13 37 4e 58 9e b8 08 a3 1d 37
       -8.964122e-05 8.798117e-06 -7.550475e-05 9.395888e-06
0001b0 5d 01 5a b6 3e 2c d2 37 30 08 79 2f 44 56 2e b8
       -3.2485325e-06 2.5054553e-05 2.2649327e-10 -4.1565174e-05
0001c0 f3 ba d3 b3 38 27 35 37 ca 96 97 b7 b0 96 c3 b7
       -9.859459e-08 1.0797572e-05 -1.807082e-05 -2.331598e-05
0001d0 4f 5e 47 ae c0 b0 17 b6 dc 0a 88 b7 b0 ef 2b 30
       -4.5331124e-11 -2.2603635e-06 -1.621752e-05 6.2550054e-10

fc2.weight f4 [84, 120]
000000 58 ba 8c a7 48 65 51 b5 5c 4c bf 00 0f c8 21 80
       -3.905984e-15 -7.800595e-07 1.7567972e-38 -3.102339e-39
000010 e8 d7 a8 9d 3c ac 02 2e 00 d2 36 2e 76 c3 c5 b4
       -4.469247e-21 2.9711553e-11 4.1568526e-11 -3.6836326e-07
000020 62 92 3f 1e 28 f4 ec 1f 70 3c 37 00 a8 ef 00 27
       1.0141727e-20 1.0035381e-19 5.072633e-39 1.7893486e-15
000030 ce 7d bf 2e ed f5 0f 85 18 d7 33 b0 d4 47 1c b0
       8.708022e-11 -6.768997e-36 -6.542549e-10 -5.6854543e-10
000040 e7 79 94 a6 02 0c 47 33 2a f7 93 80 6a 40 ac 2e
       -1.0302605e-15 4.634422e-08 -1.3588484e-38 7.833097e-11
000050 e6 ad 4f 2e 38 fa a0 30 00 f8 e4 ab 90 be 3d 37
       4.7220804e-11 1.1712649e-09 -1.6269208e-12 1.1309647e-05
000060 02 11 80 b5 48 c9 88 b5 20 15 94 a6 a6 17 f1 b4
       -9.541693e-07 -1.019137e-06 -1.0275289e-15 -4.4906955e-07
000070 6c 46 26 9c 3f d0 36 96 12 77 81 a8 7e 73 37 a4
       -5.501581e-22 -1.4767554e-25 -1.4373516e-14 -3.9779625e-17
000080 9b 59 85 b4 c3 ae 79 b5 2c 4a 0a b5 44 d8 32 30
       -2.4838377e-07 -9.301404e-07 -5.151694e-07 6.5063355e-10
000090 e0 13 5b 33 70 64 e1 aa 25 68 93 b4 4e df 45 2c
       5.1007987e-08 -4.0037721e-13 -2.745666e-07 2.8119343e-12
0000a0 4e 24 ef 2e b8 f2 46 b4 ff 4e ae b2 7c a9 54 22
       1.0874911e-10 -1.8528488e-07 -2.029219e-08 2.8821082e-18
0000b0 7a 22 47 34 70 dd 90 b5 57 20 9b 22 73 f3 07 00
       1.8545862e-07 -1.0793283e-06 4.2047075e-18 7.30182e-40
0000c0 12 d5 83 a5 0a 44 08 b4 d5 d4 4b 2d f5 fc d0 32
       -2.286926e-16 -1.269074e-07 1.1586472e-11 2.4329418e-08
0000d0 6e 85 e7 31 68 bb 08 af 5c 72 d7 34 08 72 92 a5
       6.738154e-09 -1.2435708e-10 4.0130078e-07 -2.5404233e-16
0000e0 69 72 f5 80 b1 b5 b5 b3 34 f8 00 b5 c4 4a 65 32
       -2.2540739e-38 -8.461519e-08 -4.80449e-07 1.3346554e-08
0000f0 16 60 f4 00 de d5 b0 35 a2 78 7f 36 2a 48 c7 b4
       2.244233e-38 1.3175265e-06 3.8068179e-06 -3.7119145e-07
000100 ab 0b fc a2 4e 80 56 b4 6f f6 87 b4 c0 f0 a3 20
       -6.831709e-18 -1.997698e-07 -2.5325014e-07 2.777259e-19
000110 34 00 fb 1a 8c 66 65 34 38 8c 7a a0 1d e4 bb 2b
       1.03811495e-22 2.1364593e-07 -2.1222218e-19 1.3350463e-12
000120 5e 7c a8 b4 f8 ae 99 1e 20 5f 3b a3 a8 3e de 2f
       -3.1382928e-07 1.627187e-20 -1.0157434e-17 4.0426085e-10
000130 bd 08 eb b5 a8 5a 77 ad 68 0b 00 00 bc f6 08 b4
       -1.7511408e-06 -1.4060454e-11 4.092e-42 -1.2755748e-07
000140 9a b8 01 83 e8 05 89 26 9c 38 02 84 e4 23 22 87
       -3.8121605e-37 9.507886e-16 -1.530742e-36 -1.2198073e-34
000150 af cc 5d 34 6c ea 40 32 98 8a 7a aa 18 b2 54 30
       2.0656692e-07 1.1229172e-08 -2.2252545e-13 7.7378237e-10
000160 67 03 06 b1 c1 24 09 b6 c4 e8 ee 32 b7 6f 3f 32
       -1.95015e-09 -2.0435984e-06 2.7812696e-08 1.1143064e-08
000170 12 cf 91 32 aa 9c f9 1d 92 64 18 38 6c da d5 a0
       1.6974386e-08 6.607174e-21 3.6333287e-05 -3.6228143e-19
000180 ec 91 00 00 60 22 82 34 f8 88 f4 ad 02 61 25 af
       5.2347e-41 2.4239398e-07 -2.7800415e-11 -1.5041127e-10
000190 54 25 af b5 72 cc c0 80 17 1e fd b3 0c 99 15 33
       -1.304938e-06 -1.7705756e-38 -1.1786704e-07 3.483096e-08
0001a0 de 43 82 b1 53 a5 d9 31 df e6 2b b5 8a 33 93 ad
       -3.7912136e-09 6.3343264e-09 -6.4038426e-07 -1.6734853e-11
0001b0 ae 5c c6 9d 40 a7 95 2e 4e f5 2a 16 b4 df 37 b6
       -5.2505992e-21 6.805445e-11 1.3809895e-25 -2.7399337e-06
0001c0 f6 98 d8 08 3d 74 ec b5 87 12 bf b5 f1 9c 82 b6
       1.3035988e-33 -1.76172e-06 -1.4236001e-06 -3.8925723e-06
0001d0 48 75 9f 02 48 5a 31 34 81 7a d8 95 0c 99 71 2c
       2.3430266e-37 1.6517254e-07 -8.743498e-26 3.4333118e-12
0001e0 6c 10 01 00 04 27 5b 87 1e 21 38 b2 05 7a ed 00
       9.7727e-41 -1.6487194e-34 -1.071774e-08 2.1808785e-38
0001f0 24 2b 1d 1e db 10 d2 2e a4 c6 9d 0d b0 5e e5 2e
       8.320432e-21 9.5526885e-11 9.723693e-31 1.0430534e-10
000200 38 c4 15 1d 28 96 94 1f 56 19 7b b8 d7 5f 15 99
       1.9821429e-21 6.292885e-20 -5.986666e-05 -7.722474e-24
000210 0c 96 60 0d d1 66 16 00 00 0b c6 a3 01 d5 d8 9d
       6.920594e-31 2.057264e-39 -2.1471862e-17 -5.7394965e-21
000220 19 42 3e b5 77 e8 87 9f 28 eb d1 1d 60 f4 85 8b
       -7.08767e-07 -5.7559305e-20 5.5564985e-21 -5.159743e-32
000230 ac 31 62 15 33 05 70 12 b9 ae 5c 9c c8 d4 92 8a
       4.567952e-26 7.5737055e-28 -7.301772e-22 -1.4139328e-32
000240 4f 02 0e 24 37 be e8 2d 3c 31 82 14 8b 6e da 27
       3.0793297e-17 2.6459819e-11 1.3146065e-26 6.0627006e-15
000250 c0 d7 b2 1c 86 2d 91 98 74 53 8d 1c e4 8d cd 1e
       1.1834822e-21 -3.752759e-24 9.352169e-22 2.1763904e-20
000260 35 78 0d b6 40 74 08 20 ed 04 93 a5 d8 00 f8 13
       -2.1080607e-06 1.1558112e-19 -2.5503773e-16 6.2604833e-27
000270 62 08 6d a0 13 82 ad 98 25 4f f5 b5 01 17 b4 0f
       -2.0077454e-19 -4.4850793e-24 -1.8276957e-06 1.7758231e-29
000280 50 41 a1 ab d5 06 88 a0 44 87 85 9d 9b 43 20 9f
       -1.1457866e-12 -2.3043817e-19 -3.534467e-21 -3.393724e-20
000290 20 01 90 96 39 f9 30 b7 d1 e3 93 8c fa a4 02 00
       -2.3265165e-25 -1.0548444e-05 -2.2786048e-31 2.42853e-40
0002a0 d1 1a b0 96 a3 70 e8 32 7f 6c 39 00 9c d1 67 95
       -2.8451257e-25 2.7059576e-08 5.273544e-39 -4.681543e-26
0002b0 e0 48 ee 95 46 c2 e0 1c 58 cb 02 b5 be 2f ef 2e
       -9.624241e-26 1.4873295e-21 -4.872468e-07 1.08769424e-10
0002c0 35 fc 80 0a 98 70 33 85 fa f9 43 b4 17 d8 01 13
       1.2420821e-32 -8.43722e-36 -1.8251731e-07 1.638863e-27
0002d0 8e 09 2c 1f 92 20 07 0d db 97 a2 1d 98 41 8c 0f
       3.643032e-20 4.163929e-31 4.3038058e-21 1.3830332e-29
0002e0 88 ff 7d 16 9a c3 f6 b0 ce 10 1c 23 24 ea b5 2f
       2.0517809e-25 -1.7954449e-09 8.4603355e-18 3.3090075e-10
0002f0 6e 2b 56 1b 14 a3 e3 1d 29 9f 55 9b b3 d2 a4 08
       1.7715698e-22 6.025502e-21 -1.7670374e-22 9.919926e-34
000300 3c 38 2a b7 cf 84 d4 9c b4 43 3d ab aa da 11 80
       -1.0145883e-05 -1.4063313e-21 -6.7240245e-13 -1.639645e-39
000310 aa ac 56 b4 98 09 28 00 40 28 4a 20 ce 2d 30 b7
       -1.9993118e-07 3.676861e-39 1.7123383e-19 -1.0501082e-05
000320 d6 20 b7 94 27 d9 87 95 42 4b 0b 80 ad 30 21 38
       -1.849123e-26 -5.486867e-26 -1.037188e-39 3.8430724e-05
000330 75 7c 8f 83 ea 58 26 1b f8 e7 c6 98 64 94 28 18
       -8.4333585e-37 1.3759928e-22 -5.141603e-24 2.178841e-24
000340 34 b4 47 a9 0a c8 48 80 1a d5 0f 9e a9 ab 22 b0
       -4.4343178e-14 -6.683916e-39 -7.614425e-21 -5.91792e-10
000350 c6 a6 6e 1c 44 76 08 00 76 b9 85 9d d4 92 9d 8d
       7.8963144e-22 7.7711e-40 -3.539657e-21 -9.71122e-31
000360 89 31 0a 0f e8 e4 99 b3 6b 96 94 97 66 30 c5 99
       6.8134654e-30 -7.1662555e-08 -9.602247e-25 -2.038887e-23
000370 2c ef 37 98 30 93 91 a0 e0 c3 16 21 a0 eb 8c 85
       -2.3772947e-24 -2.4661356e-19 5.1081215e-19 -1.3252092e-35
000380 92 db 90 28 96 6f e5 9f 94 59 0a b4 56 56 38 80
       1.6082435e-14 -9.7169876e-20 -1.288484e-07 -5.173759e-39
000390 03 89 13 9e df cf ee 1f 34 3f 0f 15 e2 f1 97 0e
       -7.8104486e-21 1.01140815e-19 2.892848e-26 3.74573e-30
0003a0 ec 8f 4d b3 68 25 b6 9d de 4f 83 b9 eb 7b 8d b7
       -4.7861178e-08 -4.8213676e-21 -0.00025045773 -1.6866214e-05
0003b0 48 df c1 19 a7 b4 c6 b5 ca e7 e5 98 60 08 bd aa
       2.0045915e-23 -1.4804726e-06 -5.942916e-24 -3.3578956e-13
0003c0 b9 11 18 39 8e 6a 86 39 a0 d0 e7 34 a5 8a a0 2a
       0.00014502452 0.0002563786 4.3178898e-07 2.8517913e-13
0003d0 9c 46 b0 39 24 ea 02 b8 ac 15 6f 36 e0 7e 38 af
       0.00033621944 -3.1212476e-05 3.562639e-06 -1.6779778e-10
0003e0 02 b7 81 ad 43 5d ba 24 23 7a ec 31 bf 24 23 30
       -1.4746874e-11 8.082263e-17 6.8823893e-09 5.9351274e-10
0003f0 73 fe 11 b5 6b a1 aa 24 af f3 d1 b2 2c 24 e4 a6
       -5.438698e-07 7.39992e-17 -2.4441617e-08 -1.5830483e-15

fc2.bias f4 [84]
000000 2c 5d a7 33 5e d6 82 36 c0 c3 dc b5 aa 6d 61 b2
       7.7934914e-08 3.8992575e-06 -1.6448248e-06 -1.3121658e-08
000010 62 55 e2 b8 66 2d 20 b8 70 68 23 38 34 af f3 b3
       -0.000107924236 -3.8189253e-05 3.8959493e-05 -1.13474385e-07
000020 00 11 eb b6 74 5a d4 2f 21 26 0a b8 7e aa dc 31
       -7.005525e-06 3.8626846e-10 -3.2937274e-05 6.4222254e-09
000030 a0 ea 7f 38 de a6 b2 38 00 e7 78 b3 cc ba f4 36
       6.101525e-05 8.518783e-05 -5.7952093e-08 7.2935127e-06
000040 78 fd 1a 37 2e af 5e b4 d2 8c 0c 35 56 4c e0 34
       9.238131e-06 -2.0739091e-07 5.2358985e-07 4.1778793e-07
000050 20 40 12 b7 25 71 2a 2c de 33 bc b5 ca 09 18 b8
       -8.717208e-06 2.422126e-12 -1.4022187e-06 -3.624874e-05
000060 ec 00 e6 b4 40 d9 a3 32 2c e8 b2 33 28 c8 87 b7
       -4.284151e-07 1.9074491e-08 8.331003e-08 -1.618646e-05
000070 18 b9 21 39 c4 7d be b8 18 61 15 33 fe 31 11 b9
       0.0001542311 -9.083332e-05 3.4780072e-08 -0.00013846901
000080 d4 12 23 b7 9b 01 8e 33 39 b0 14 b9 88 e0 35 b8
       -9.719941e-06 6.612682e-08 -0.00014180028 -4.3362874e-05
000090 88 ec 82 b7 e2 b6 67 b8 6a 5f c9 37 28 a3 8a 2a
       -1.5607351e-05 -5.5245015e-05 2.4005498e-05 2.4626937e-13
0000a0 0c 7f b6 35 d7 82 17 b9 ca 30 a2 38 a1 78 dd 38
       1.3597032e-06 -0.00014449224 7.7338496e-05 0.0001056057
0000b0 18 9d 5a 32 3b ce 4d 2b e9 2c 3a b9 3d a9 78 b3
       1.2724989e-08 7.311683e-13 -0.00017755073 -5.789592e-08
0000c0 8f 41 5a b8 5b 8d f4 b8 e5 90 6c b0 50 5c f7 37
       -5.2036306e-05 -0.00011661156 -8.606221e-10 2.948768e-05
0000d0 fb 41 65 36 74 ac 81 38 52 da 08 39 31 7e cf b7
       3.4162065e-06 6.183321e-05 0.00013051301 -2.4735085e-05
0000e0 6a d0 6d b8 2a 31 aa 38 ac 2d b2 33 26 97 84 36
       -5.6699304e-05 8.115389e-05 8.2970786e-08 3.9515025e-06
0000f0 0e 7e 0d b8 52 9d 04 36 ed e9 9e b5 68 11 2c b8
       -3.3734417e-05 1.9761105e-06 -1.1839999e-06 -4.1024206e-05
000100 34 db b5 b8 fd aa 3d b5 0a d1 33 b8 98 22 a5 36
       -8.671582e-05 -7.065681e-07 -4.287161e-05 4.9214104e-06
000110 ea 7c 08 b4 78 f6 7a b4 c2 ec 8b b7 d4 91 94 b7
       -1.271143e-07 -2.3372729e-07 -1.668034e-05 -1.7710881e-05
000120 76 c0 36 b9 5a f7 92 b6 18 c1 93 36 80 28 95 37
       -0.0001742857 -4.3799346e-06 4.4034205e-06 1.7781043e-05
000130 04 c0 bd 38 7a 2b f1 b6 90 57 4f b6 3c 3e 13 32
       9.047988e-05 -7.187421e-06 -3.0896372e-06 8.570677e-09
000140 1e 29 b7 b1 c4 62 f3 33 5a 30 17 b9 c8 2d 8d 38
       -5.3306755e-09 1.13335346e-07 -0.00014418495 6.731931e-05

fc3.weight f4 [26, 84]
000000 d4 90 99 b4 e2 8a d3 32 28 70 03 bb cb 43 48 b9
       -2.8603847e-07 2.462679e-08 -0.0020055864 -0.00019098741
000010 9d 32 19 3b 6f c6 8e 3c 33 a1 0d 3d 0e cf b6 b6
       0.0023376115 0.017428605 0.03457756 -5.448127e-06
000020 dc c3 9c 3d 37 ac d6 b7 47 f9 94 3c 6b a4 f6 33
       0.07654545 -2.5590982e-05 0.018185271 1.1485175e-07
000030 ae d9 c6 bc 6e c7 3c bc 9c 28 13 b1 ed 28 52 37
       -0.02427372 -0.011522157 -2.14144e-09 1.2526504e-05
000040 9e dc ae 3c cd c6 5e b4 0a ac 03 39 5a 02 fb b3
       0.021345433 -2.0747684e-07 0.00012557223 -1.1688526e-07
000050 5a 75 17 3d ca 6c bf ad 7b ba e7 3a e7 03 69 bc
       0.03697715 -2.1762498e-11 0.0017679477 -0.014222122
000060 22 06 3f b7 ad c4 2d b6 43 18 4b 3b 93 45 ed bb
       -1.1385915e-05 -2.589349e-06 0.0030989803 -0.00724096
000070 48 b5 04 bd d9 fa fc b5 05 b5 09 35 46 ba 7e bc
       -0.032399446 -1.8848469e-06 5.1299895e-07 -0.015547341
000080 59 a7 3f 3c be e7 8d b3 89 39 05 bd 51 7a 3a 3c
       0.011697614 -6.607978e-08 -0.032525573 0.011381702
000090 73 35 20 b9 72 62 50 b1 bb 66 ad 38 45 f1 21 2c
       -0.000152787 -3.0323943e-09 8.268418e-05 2.3013408e-12
0000a0 1d 17 c6 b6 fe b8 18 bc bd 09 fb bb be 0b 19 3e
       -5.9035506e-06 -0.009321449 -0.007661073 0.14945886
0000b0 a2 e2 9a 32 73 69 2b a8 74 f4 5c bd f4 26 3e 35
       1.803102e-08 -9.5152725e-15 -0.053944066 7.08372e-07
0000c0 a1 3c a2 b7 7f ac 83 bc b1 d6 3f b8 72 ee de b7
       -1.9340137e-05 -0.016073463 -4.5737896e-05 -2.6575497e-05
0000d0 a6 7d 0c 33 bd 13 52 3d 33 f0 e0 bc 12 44 24 bd
       3.2710567e-08 0.051288355 -0.027458286 -0.04010398
0000e0 ea ed 27 3d 22 24 dc 37 b0 07 24 b4 bd 27 b8 35
       0.040998377 2.624287e-05 -1.5276487e-07 1.3720634e-06
0000f0 82 ca 43 3c 84 7f 8c b8 5a 78 80 35 f3 6e 6f 3d
       0.011950137 -6.699472e-05 9.57177e-07 0.05845542
000100 13 cb bc bd c1 5f 97 36 e6 b9 01 bc 99 20 e0 b5
       -0.09218421 4.511298e-06 -0.007917857 -1.6698788e-06
000110 e1 22 1b b4 31 23 10 b2 35 f6 e2 3d 51 f1 a3 3b
       -1.4448189e-07 -8.389905e-09 0.110821165 0.0050031324
000120 47 0c a4 3b 46 28 bb 35 c9 4d d8 b8 7f 48 a0 b8
       0.0050063464 1.3944307e-06 -0.00010314171 -7.642898e-05
000130 4f 51 9e bc b8 1e 44 b9 71 91 73 b9 2b 30 7b 37
       -0.01932588 -0.0001870346 -0.00023228467 1.4971981e-05
000140 91 68 9f 33 4a 04 21 b9 27 54 91 36 93 2e 18 ba
       7.423035e-08 -0.00015355754 4.3311334e-06 -0.000580528
000150 eb d8 9f 33 5c e3 92 ab c6 7b 9c 3b 32 16 0b ba
       7.4434716e-08 -1.0437029e-12 0.004775497 -0.00053057366
000160 97 f9 ae bc e8 d5 a2 3c 82 37 c5 3c 48 fb f4 b8
       -0.021359248 0.01987739 0.02407432 -0.000116816314
000170 ba 26 8a bc 24 cc 45 b4 56 2a 18 3d 34 ab bb 2b
       -0.01686417 -1.842132e-07 0.03714975 1.3334668e-12
000180 e8 48 22 bc 60 c7 31 bd 76 cc 96 33 30 66 64 36
       -0.0099050775 -0.04340303 7.0221105e-08 3.4034128e-06
000190 35 e9 b6 3c 5c db f9 34 5c 29 66 39 5c d7 2a b5
       0.022327999 4.653947e-07 0.00021949917 -6.3643324e-07
0001a0 14 a3 fe bb d9 25 c1 af 52 ce b3 3b 7a a0 a2 bc
       -0.0077709053 -3.5133388e-10 0.005487242 -0.019851912
0001b0 1a 9e 14 3a 32 8d c9 34 8a 5d ad 3b 03 9d 8c bc
       0.0005669311 3.75419e-07 0.0052906917 -0.017164713
0001c0 a3 37 76 bd 0b 31 5e b6 7e 9a 76 3a 4c bc c5 3b
       -0.060111653 -3.3109125e-06 0.00094071764 0.0060344096
0001d0 c7 ac b8 bc 9e 2a be 34 7d bb 64 3d 95 3f b2 3c
       -0.022543324 3.5421266e-07 0.055842865 0.021758834
0001e0 ce 88 6f 37 e3 eb 49 32 25 10 a3 bb a8 05 90 32
       1.4277362e-05 1.1753374e-08 -0.00497629 1.6766379e-08
0001f0 9a 7e ac b2 67 ca b0 bc e5 85 a9 bb f7 bd a0 bc
       -2.0081007e-08 -0.021580888 -0.005173432 -0.019621832
000200 ad 2b 05 b4 3f b6 17 2f e3 a3 43 3d 55 2d d3 38
       -1.240248e-07 1.3798117e-10 0.047763716 0.00010069708
000210 e2 75 91 36 80 30 24 3d 72 71 5e ab 0e 8a 7f 38
       4.33506e-06 0.040085316 -7.902768e-13 6.092531e-05
000220 7b 45 04 32 63 0d bd bc 11 c6 4b bd 17 d1 5b bd
       7.699209e-09 -0.023077672 -0.049749438 -0.0536662
000230 96 42 be 3c 47 98 37 3d e4 1c 09 34 5b bd 31 b6
       0.02322511 0.044822957 1.276963e-07 -2.6485275e-06
000240 90 eb a6 3c 0a 71 26 3b ad ab de 36 15 29 1c bc
       0.020375997 0.0025396966 6.6361013e-06 -0.009531279
000250 3e f6 49 bd c3 ef 00 38 a1 54 19 bc c3 86 0c b9
       -0.0493071 3.0740874e-05 -0.009358556 -0.00013401643
000260 24 0c 01 35 be 60 33 35 2b e8 38 3d b6 3c cf bc
       4.807391e-07 6.6823475e-07 0.045143288 -0.025297504
000270 37 ec 31 3e 5c e2 15 b7 0f de 8d b6 8b 5c 10 3c
       0.17375265 -8.9337955e-06 -4.2279785e-06 0.008811126
000280 da a7 54 bd d2 09 5b 3b 4e e1 81 b7 c8 d6 ff 37
       -0.05191789 0.0033422601 -1.5482914e-05 3.0498384e-05
000290 27 38 6c 34 2d f1 84 b6 da 2b 07 b4 63 8b 95 37
       2.1999641e-07 -3.961983e-06 -1.2588808e-07 1.7827091e-05
0002a0 bf d3 3e 34 30 15 08 1f 27 04 8d bb 39 84 9e 3b
       1.7772162e-07 2.8816646e-20 -0.0043034735 0.0048375395
0002b0 34 50 ca 3d ea 24 62 3b 19 60 b6 ba 63 4a e2 39
       0.09878579 0.0034506866 -0.0013914137 0.00043161502
0002c0 8b ff 21 bc 40 0d 98 38 90 e8 d4 3a 2d 2a a0 2e
       -0.009887586 7.250393e-05 0.0016243625 7.2834495e-11
0002d0 f7 23 dd 3a a2 af 96 3d 67 97 b2 b3 d0 cd 06 38
       0.001687168 0.07357718 -8.316311e-08 3.2139767e-05
0002e0 71 02 93 3b fb 5a a4 b6 42 1a 1b 39 a5 7f ae 34
       0.004486375 -4.8981724e-06 0.00014791734 3.25029e-07
0002f0 9a 44 65 3b 96 a6 60 37 80 a7 2b 3c 62 8a 08 bd
       0.0034983517 1.3390227e-05 0.010476947 -0.033335097
000300 cd 87 f6 b9 74 db d5 b4 48 14 2e 3c 17 17 51 bc
       -0.00047021956 -3.9834015e-07 0.010624953 -0.012761853
000310 d1 99 2c bc 77 20 98 36 b6 80 3b 3b 63 5c 8b 3d
       -0.01053472 4.5337324e-06 0.0028610653 0.06804731
000320 a3 e6 b3 b9 a7 84 38 b4 be b3 9b 3d 7a e9 9e 3b
       -0.00034313378 -1.7184594e-07 0.076026425 0.00484961
000330 16 be 89 38 39 53 a7 31 db b4 80 ba 09 03 f7 aa
       6.568075e-05 4.869801e-09 -0.0009819524 -4.387812e-13
000340 b3 3f 12 34 a5 71 ed 3b e0 c1 ea bb 61 7d 0d bd
       1.3620483e-07 0.0072462135 -0.007164225 -0.0345434
000350 58 1e 7c b1 c1 81 56 a8 0a 75 b6 3c fc 00 84 3a
       -3.6688075e-09 -1.1907522e-14 0.022272605 0.0010071094
000360 c8 1e 83 38 0c a2 85 bb 76 e0 03 2a 92 61 a5 38
       6.2523e-05 -0.0040781554 1.1713013e-13 7.885987e-05
000370 e0 a1 0c 31 fa c2 1c bd af 5b 44 3d 95 19 87 3d
       2.0464697e-09 -0.03827188 0.047939 0.06596676
000380 e6 db 43 bc 1b 75 43 bd 93 92 1a b3 fe 2f 89 36
       -0.011954283 -0.047719102 -3.5989228e-08 4.088505e-06
000390 df e4 13 3c 76 73 09 3b fc 0e f7 35 cd 79 80 bc
       0.009026735 0.002097336 1.8407295e-06 -0.01568308
0003a0 de b2 09 bd ef c7 b7 31 57 10 89 bb 2c 75 2b 39
       -0.033617847 5.348731e-09 -0.004182856 0.00016351481
0003b0 d8 c2 4a b4 f5 bd d5 b4 e8 89 63 bd bc a6 85 bd
       -1.88836e-07 -3.9812554e-07 -0.05555144 -0.06525943
0003c0 e8 81 51 bc 3f 92 bf b5 b7 c7 38 38 33 c6 15 bb
       -0.01278732 -1.4273172e-06 4.4055017e-05 -0.0022853732
0003d0 8b 86 00 bd c3 19 5c 3b 38 00 ba b7 0e be e1 36
       -0.03137831 0.003358469 -2.217303e-05 6.727648e-06
0003e0 1f d3 07 38 ed 1d 3c b7 a5 a5 e2 34 29 cd eb 39
       3.238313e-05 -1.1212641e-05 4.2216303e-07 0.0004497555
0003f0 e0 01 18 b4 27 09 c1 b6 18 db c3 b9 b2 bc 05 3b
       -1.4156785e-07 -5.7529137e-06 -0.00037356536 0.002040666

fc3.bias f4 [26]
000000 a0 b6 c8 b9 00 e6 d4 b7 06 65 2f ba 59 b2 4c 3a
       -0.0003828304 -2.5379471e-05 -0.0006690774 0.00078085583
000010 be 77 78 3a e2 c5 49 39 0b 69 94 39 e7 16 cb b9
       0.0009478292 0.00019242571 0.00028307023 -0.0003873624
000020 88 c5 e6 38 09 c6 94 ba 24 97 6f b8 0f 71 08 3a
       0.00011004048 -0.0011350523 -5.71228e-05 0.00052048353
000030 c4 d0 a4 3a 06 3b 8e 39 a0 29 a6 b9 46 8f 31 3a
       0.0012574424 0.00027128326 -0.00031693 0.00067733636
000040 a4 d5 42 b9 8e a0 19 ba 11 b4 9c 3a 47 94 36 b8
       -0.00018580869 -0.00058604113 0.001195552 -4.3530275e-05
000050 ae 29 2c ba e2 52 d4 ba 26 f5 88 39 12 8d 85 b9
       -0.000656749 -0.0016199017 0.0002612259 -0.00025472842
000060 6c 9a 15 3a a7 0e f5 ba
       0.00057069096 -0.0018696383
